lightning_logs/version_0/checkpoints/epoch=4-step=125.ckpt (torch, 11683 bytes, 9 tensors)

fc1.weight f4 [32, 10]
0	0x3e92cb58	0.28670764
1	0xbe77f778	-0.24215496
2	0xbe1bad88	-0.15202916
3	0xbdcd36d7	-0.100202255
4	0xbe822af8	-0.25423408
5	0xbdc922e6	-0.098211095
6	0xbdf201a9	-0.11816723
7	0x3e416886	0.18887529
8	0x3dff3b63	0.12462499
9	0x3ea749b7	0.32673427
10	0x3e6677ca	0.22506633
11	0x3dd0c7d5	0.10194365
12	0x3d9a44e9	0.07532675
13	0x3e6a41e2	0.22876695
14	0x3e01cd09	0.12675871
15	0x3e9d3804	0.307068
16	0xbaa6e572	-0.0012733175
17	0x3e677873	0.22604541
18	0x3e830519	0.25589827
19	0x3e8a988f	0.27069518
20	0xbe7eff83	-0.24902157
21	0xbe1b9576	-0.15193734
22	0x3db5887f	0.08863925
23	0xbe3bad3f	-0.18327807
24	0x3d5208ff	0.05127811
25	0xbe00c648	-0.12575638
26	0xbe5aaa7e	-0.213541
27	0xbe6f3bc3	-0.23362641
28	0x3e7aa74f	0.24477886
29	0x3db02364	0.086005
30	0xbe041c48	-0.12901413
31	0x3ddd50b3	0.10806408
32	0xbea84743	-0.32866868
33	0xbe568fd9	-0.20953311
34	0xbe9a097e	-0.30085367
35	0x3e847ee6	0.25878066
36	0x3c1d296a	0.009592393
37	0xbe681e3f	-0.22667788
38	0x3df6789f	0.120347254
39	0x3e6224fc	0.22084421
40	0xbe807ea1	-0.2509661
41	0x3e488378	0.19581401
42	0x3de2f60d	0.11082087
43	0xbdd9d529	-0.1063636
44	0x3d778c01	0.060436253
45	0xbcfaccdd	-0.030615265
46	0x3e57e2a1	0.21082546
47	0x3e282f5e	0.16424319
48	0xbe1b6dc6	-0.15178594
49	0x3ead4d65	0.3384811
50	0x3e8da486	0.27664584
51	0xbc431596	-0.011907002
52	0xbe24aaf1	-0.16080834
53	0xbc04203c	-0.008064326
54	0xbe0312a7	-0.12800084
55	0xbced4572	-0.028963778
56	0xbe4077f9	-0.18795766
57	0xbe5cb0b6	-0.21551785
58	0x3e2a5be6	0.16636619
59	0xbbed3994	-0.00723953
60	0xbdd6a02a	-0.104797676
61	0xbe1954dd	-0.14973779
62	0x3d4eb409	0.050464664
63	0x3e2abaf1	0.16672875
64	0x3e396502	0.18104938
65	0x3e790560	0.24318457
66	0x3de8c19a	0.113650516
67	0x3d9948f6	0.07484619
68	0x3e8b5ee9	0.27220848
69	0x3ea383c0	0.31936455
70	0x3e82e50a	0.25565368
71	0xbc3fab4d	-0.011698556
72	0xbd152ace	-0.036417775
73	0x3d01f1e9	0.031724844
74	0xbe900669	-0.2812989
75	0xbe061daf	-0.13097261
76	0xbe4fcc36	-0.20292744
77	0x3e118848	0.14212143
78	0xbe1e5bf6	-0.15464768
79	0x3e5f6853	0.2181714
80	0xbda7033a	-0.08154912
81	0xbe9a288c	-0.3010906
82	0x3e161c40	0.14659214
83	0x3e7ca043	0.2467051
84	0xbd4fd677	-0.05074164
85	0xbe8dd2b0	-0.27699804
86	0x3c270ed7	0.010196409
87	0xbe20eb86	-0.15714845
88	0xbe4a02a6	-0.19727573
89	0xbe32f6be	-0.17476937
90	0x3e821b59	0.2541149
91	0xbd4487ce	-0.047981076
92	0xbe2efe7b	-0.17089264
93	0x3ea99574	0.33121836
94	0xbd5f06d7	-0.054449882
95	0xbe882323	-0.26589307
96	0x3e0278e4	0.12741429
97	0xbe8a1a4a	-0.26973182
98	0x3e8f4c83	0.2798806
99	0x3cc53142	0.02407134
100	0x3da78a1f	0.081806414
101	0xbe19b158	-0.15009058
102	0xbd71ce7f	-0.05903482
103	0xbd8b09dc	-0.0678899
104	0xbe6e2561	-0.23256446
105	0x3d14f9a8	0.036370903
106	0xbe43a449	-0.19105639
107	0x3e37374d	0.1789219
108	0xbe91098c	-0.28327596
109	0x3e435d57	0.19078575
110	0xbd5e634d	-0.05429392
111	0x3e704b4c	0.23466223
112	0xbdaac4a5	-0.08338288
113	0x3e46e136	0.19421849
114	0xbe6d9a73	-0.23203449
115	0xbd6d5508	-0.05794242
116	0x3e8297bb	0.25506386
117	0xbdef5a8b	-0.116871916
118	0xbe3591fb	-0.17731468
119	0xbabf923e	-0.0014615727
120	0x3d36ff31	0.044676963
121	0x3e99213f	0.29908177
122	0xbe9c2e87	-0.30504248
123	0xbeb5acfb	-0.35483536
124	0xbe05b990	-0.13059068
125	0xbd9ca880	-0.07649326
126	0x3da1a419	0.07892627
127	0x3c800d9b	0.015631488
128	0x3e80df42	0.25170332
129	0x3e384880	0.17996407
130	0xbe448e63	-0.19194941
131	0xbd9695fd	-0.07352827
132	0xbd046778	-0.032325238
133	0x3e714d4e	0.23564646
134	0x3d00f89b	0.03148709
135	0x3da80edd	0.0820596
136	0xbe27c9df	-0.16385601
137	0x3e55c513	0.20875959
138	0xbe7d1e8c	-0.24718684
139	0x3d35b480	0.04436159
140	0x3c652669	0.0139862085
141	0xbc8122e4	-0.015763707
142	0x3e4582cf	0.19288181
143	0xbdc326af	-0.09528863
144	0x3e15a96e	0.14615414
145	0x3deb57ad	0.11491332
146	0xbdfdf0b9	-0.1239943
147	0x3e32bdc2	0.174552
148	0xbe192839	-0.1495675
149	0x3e091879	0.13388242
150	0x3e5d131a	0.21589318
151	0xbe815f64	-0.2526809
152	0x3e97df48	0.29662538
153	0xbd15b6c9	-0.03655127
154	0xbdfe569f	-0.124188654
155	0xbdc5faba	-0.09666963
156	0xbc81c057	-0.015838785
157	0x3e137cf6	0.14403138
158	0xbe857974	-0.26069224
159	0x3e7281cc	0.23682326
160	0xbe3ba4cf	-0.18324588
161	0x3e8662c6	0.26247233
162	0x3d299e28	0.041410595
163	0x3d35497d	0.044259537
164	0xbe968f83	-0.29406366
165	0x3ea2a76d	0.3176836
166	0xbd0a74ab	-0.03380267
167	0xbe70bb3d	-0.23508926
168	0xbdbfaeb6	-0.09359495
169	0xbe69a048	-0.22815049
170	0xbe8208e2	-0.25397402
171	0x3e0f1c22	0.13975576
172	0xbdbdcd5d	-0.092676856
173	0xbe5b9f65	-0.21447523
174	0x3d5ac536	0.05341073
175	0x3e3ac0c0	0.18237591
176	0x3deb088c	0.114762396
177	0xbcef80b3	-0.029236173
178	0xbd8390c3	-0.064240955
179	0xbd80ee98	-0.06295508
180	0x3e93f107	0.28894827
181	0x3e16ca57	0.14725624
182	0x3e940771	0.28911927
183	0xbe06d27d	-0.13166232
184	0xbe56d7c5	-0.20980747
185	0x3e0a965e	0.13533923
186	0xbe1517f4	-0.14559919
187	0xbe8c878d	-0.27447167
188	0x3dc03d6d	0.09386716
189	0xbe31107d	-0.17291446
190	0xbdebc475	-0.115120806
191	0xbd089f1a	-0.033354856
192	0xbdd8da8f	-0.10588562
193	0xbda76de8	-0.0817526
194	0x3e5de65b	0.21669905
195	0xbe75aef2	-0.23992518
196	0xbdbbef45	-0.091764964
197	0x3e34f583	0.1767178
198	0x3e33166c	0.17489022
199	0xbe066a97	-0.13126598
200	0x3e9138cd	0.28363648
201	0x3e91abca	0.28451377
202	0xbe85211f	-0.26001832
203	0xbe753ad4	-0.23948222
204	0xbe8dce80	-0.2769661
205	0x3e3b0759	0.18264522
206	0x3d35d471	0.044392053
207	0x3d06b93d	0.0328915
208	0xbe3840a9	-0.17993416
209	0xbdc28a9d	-0.09499095
210	0xbcf33cab	-0.029692015
211	0xbda3dd40	-0.080011845
212	0x3dd0423a	0.10168882
213	0x3e0ad56f	0.13557981
214	0x3db62d50	0.088953614
215	0x3e074f68	0.13213885
216	0x3d9816ee	0.074262485
217	0xbd82828d	-0.06372557
218	0xbdf8abf9	-0.12142176
219	0x3d427527	0.047475006
220	0xbb7c5b6f	-0.0038506647
221	0xbc978f54	-0.018500961
222	0x3d5e66e9	0.05429736
223	0xbd6b8ab5	-0.05750533
224	0xbde2a781	-0.11067105
225	0xbe695e1d	-0.22789808
226	0xbe8d8ce9	-0.27646568
227	0x3e54da1d	0.20786329
228	0xbe080ba5	-0.13285692
229	0x3e7a8bba	0.24467364
230	0xbe8e6e95	-0.27818742
231	0x3e76379d	0.24044652
232	0xbdd1fae5	-0.102529325
233	0xbe8914c3	-0.26773652
234	0xbdc62bf9	-0.09676356
235	0xbda5e15e	-0.08099626
236	0xbdf406de	-0.11915372
237	0xbe70bb2c	-0.235089
238	0x3e430cc5	0.1904784
239	0xbe3431b8	-0.17597091
240	0xbe958b66	-0.29207915
241	0x3e1e1c08	0.1544038
242	0xbe9ef2d9	-0.31044653
243	0x3e776aa0	0.24161768
244	0xbe721812	-0.23641995
245	0xbe42e15f	-0.19031285
246	0xbd978947	-0.073992305
247	0x3e6e43be	0.23268029
248	0x3e8391b2	0.25697094
249	0x3dc3ebfe	0.09566496
250	0x3df6b7fe	0.120468125
251	0xbe98b1f2	-0.29823261
252	0x3e73ddcc	0.23815078
253	0xbe6abde1	-0.22923996
254	0xbda12d74	-0.078699976
255	0xbe014987	-0.12625705

fc1.bias f4 [32]
0	0xbe15751f	-0.1459546
1	0x3e3a53b6	0.18195996
2	0xbe861b74	-0.2619282
3	0xbe35b844	-0.17746073
4	0x3e821c7a	0.2541235
5	0x3e893782	0.26800162
6	0x3df7ffa2	0.12109305
7	0x3d6d8271	0.057985727
8	0x3b4f84c1	0.003166482
9	0xbd1b4d2b	-0.03791539
10	0x3ec6493b	0.38727745
11	0xbe439366	-0.19099197
12	0xbe3549b4	-0.17703897
13	0xbe1a6f00	-0.15081406
14	0xbe5be122	-0.214726
15	0x3e9887a2	0.2979098
16	0x3e683760	0.22677374
17	0xbe95b228	-0.29237485
18	0xbe88cc6c	-0.26718462
19	0x3d6928e7	0.056923773
20	0xbe151a2f	-0.1456077
21	0x3c99199d	0.018688971
22	0xbe8a4685	-0.27006927
23	0xbc6253b7	-0.0138139045
24	0xbe10dab5	-0.1414593
25	0x3e69d353	0.2283452
26	0x3da21a76	0.07915203
27	0x3e6bdaad	0.23032637
28	0x3e960dfd	0.29307547
29	0xbe63c33e	-0.22242448
30	0xbe4d52a2	-0.20051053
31	0x3e726418	0.23670995

fc2.weight f4 [1, 32]
0	0xbda8d30c	-0.08243379
1	0x3d954153	0.0728785
2	0x3e125f44	0.14294153
3	0x3c59799a	0.013273621
4	0x3dec1aa5	0.115285195
5	0xbe20f917	-0.1572002
6	0x3e31af4e	0.1735203
7	0xbdc5cd2e	-0.096582755
8	0xbbc10f7e	-0.0058917394
9	0x3e06b538	0.13155067
10	0xbe7018ab	-0.2344691
11	0xbd0a3508	-0.03374198
12	0xbd3648b2	-0.04450292
13	0xbce17177	-0.027519925
14	0x3c8f2a43	0.017476207
15	0xbc25cd22	-0.010119708
16	0xbdc156c0	-0.094403744
17	0x3dc8b15d	0.09799454
18	0xbdb29d78	-0.08721441
19	0xbdb457ea	-0.08805831
20	0x3cc9cc6f	0.024633614
21	0xb8079598	-3.232583e-05
22	0x3d174cbf	0.036938425
23	0x3ccd69e7	0.025074912
24	0xbe194462	-0.14967492
25	0xbe33aef4	-0.17547208
26	0xbe18f541	-0.14937307
27	0xbe08c169	-0.1335503
28	0xbe8cbfb5	-0.2749001
29	0xbdf7cf0c	-0.12100038
30	0x3e14468f	0.14480041
31	0xbe305c80	-0.17222786

exp_avg f4 [32, 10]
0	0xba015d8b	-0.00049348985
1	0x38a9727a	8.079871e-05
2	0x378006f7	1.5262032e-05
3	0xb9b6e785	-0.0003488624
4	0xb930ee03	-0.00016873334
5	0xb9fd1db7	-0.0004827806
6	0xb8b954ae	-8.83726e-05
7	0xba087f1f	-0.0005206931
8	0xba273f8b	-0.0006380013
9	0xba240ca8	-0.00062579894
10	0xbab06386	-0.0013457395
11	0xbae088ea	-0.0017130647
12	0xbae08629	-0.0017129827
13	0xbae7894c	-0.0017664819
14	0xbaea90c7	-0.001789593
15	0xbab8657a	-0.0014068328
16	0xbaa14877	-0.0012304921
17	0xbab10d8d	-0.0013508067
18	0xb9cefc30	-0.00039479276
19	0xbad87710	-0.0016514976
20	0x00000000	0.0
21	0x00000000	0.0
22	0x00000000	0.0
23	0x00000000	0.0
24	0x00000000	0.0
25	0x00000000	0.0
26	0x00000000	0.0
27	0x00000000	0.0
28	0x00000000	0.0
29	0x00000000	0.0
30	0xb782d2a5	-1.5595297e-05
31	0xb7d22f46	-2.5055964e-05
32	0xb6dbc82b	-6.550011e-06
33	0xb7763ca0	-1.4676858e-05
34	0xb5c78855	-1.4866333e-06
35	0xb76a67f7	-1.3971693e-05
36	0xb7e0a43e	-2.6779362e-05
37	0xb7159027	-8.914655e-06
38	0xb7a501bd	-1.9670342e-05
39	0xb7784eb8	-1.480028e-05
40	0xbb1205e9	-0.0022281355
41	0xbb38f12e	-0.0028219926
42	0xbb384187	-0.002811523
43	0xbb3ec598	-0.0029109474
44	0xbb41299b	-0.0029474262
45	0xbb1810c7	-0.002320336
46	0xbb050130	-0.0020294897
47	0xbb1332cf	-0.0022460704
48	0xba34822d	-0.0006885853
49	0xbb31f31e	-0.0027152966
50	0x3ace6823	0.0015747588
51	0x3ae07629	0.0017125058
52	0x3ae05198	0.0017114161
53	0x3acb31e7	0.0015502543
54	0x3aa77004	0.0012774472
55	0x390a4153	0.00013185041
56	0x3a5beaeb	0.00083891925
57	0x3a60a759	0.00085698586
58	0xba8fb529	-0.0010964024
59	0x3ae5f41b	0.0017544063
60	0xbb59ef59	-0.0033254235
61	0xbb89f868	-0.0042105205
62	0xbb89c577	-0.004204448
63	0xbb8e2746	-0.004338178
64	0xbb900add	-0.0043958263
65	0xbb635a14	-0.0034691142
66	0xbb46e623	-0.0030349575
67	0xbb5b5167	-0.0033465268
68	0xba84f0fb	-0.0010142619
69	0xbb84fab5	-0.004058207
70	0x391828a8	0.00014510995
71	0x3a981636	0.0011603299
72	0x3a8db845	0.0010812363
73	0x3a4a944d	0.0007727787
74	0x3a2a23d7	0.0006490326
75	0x39eea49b	0.00045517538
76	0x3a37f3df	0.00070172356
77	0x38ddccdb	0.000105762585
78	0x393efd19	0.00018214098
79	0x39c65d71	0.00037835122
80	0xb6d8c544	-6.4602664e-06
81	0xb5af9e1d	-1.3084533e-06
82	0xb6a4bf7b	-4.909872e-06
83	0xb7333701	-1.0682038e-05
84	0xb65e8fda	-3.316431e-06
85	0xb59d47fb	-1.1718361e-06
86	0xb7252f8e	-9.845839e-06
87	0xb667f569	-3.456453e-06
88	0xb68f2e87	-4.2671486e-06
89	0xb6057663	-1.9887455e-06
90	0xbae02246	-0.0017100058
91	0xbb08597b	-0.0020805288
92	0xbaff424b	-0.0019474713
93	0xbac50f70	-0.0015034508
94	0xbaf142c4	-0.0018406739
95	0xbabc6566	-0.0014373481
96	0xba8d4c81	-0.0010780246
97	0xbaf2e185	-0.0018530345
98	0xb6c1b3e0	-5.7727884e-06
99	0xbb090475	-0.0020907198
100	0x3af51838	0.0018699234
101	0x3b81a074	0.003955895
102	0x3b0816fe	0.0020765658
103	0x3b61b55e	0.0034440379
104	0x3b546c54	0.0032413201
105	0x3b4ce871	0.0031266476
106	0x3ad49e80	0.0016221553
107	0x3aec42e9	0.0018025312
108	0xb9e65301	-0.0004393086
109	0x3b43c37f	0.0029871163
110	0xb8ee8b5f	-0.00011374684
111	0xb900b849	-0.00012275683
112	0xb7ff8486	-3.046008e-05
113	0xb95326fc	-0.00020137051
114	0xb80aa2b8	-3.3053308e-05
115	0xb8b86a68	-8.7936234e-05
116	0xb982aaaa	-0.00024922687
117	0xb84c5767	-4.871879e-05
118	0xb7dd4297	-2.6376261e-05
119	0xb82fb8c0	-4.1895313e-05
120	0xb920a1ef	-0.00015319114
121	0xb95935fd	-0.00020714845
122	0x38e526a1	0.00010926766
123	0x38504ba6	4.9661518e-05
124	0x37da7cba	2.6045705e-05
125	0xb8812a7d	-6.1591134e-05
126	0xb9194a70	-0.00014618947
127	0xb88f3156	-6.827961e-05
128	0xb971ae8b	-0.00023048573
129	0xb89e57e5	-7.550399e-05
130	0x381e92b2	3.7806756e-05
131	0x3879ba84	5.9539932e-05
132	0x38ac1e37	8.207227e-05
133	0x38ae03e8	8.297694e-05
134	0x38853359	6.3514985e-05
135	0x37ff85c0	3.0460651e-05
136	0x388b6a1d	6.647802e-05
137	0x377427de	1.4552816e-05
138	0xb635c40e	-2.708522e-06
139	0x38eb75b8	0.000112276
140	0xb9cab33b	-0.0003866198
141	0xb9f82a7e	-0.00047333905
142	0xb9e091a4	-0.0004283312
143	0xb9f84ea0	-0.00047360826
144	0xb9ef946c	-0.00045696215
145	0xb9dc1a50	-0.00041981274
146	0xb9d1c75a	-0.00040012115
147	0xb9da1465	-0.00041595395
148	0xb9ac80e1	-0.0003290242
149	0xb9fb46f6	-0.0004792732
150	0x3952dc4d	0.00020109229
151	0x39844b54	0.00025233126
152	0x397c97f9	0.00024089207
153	0x3981e78d	0.00024777316
154	0x39817710	0.00024693506
155	0x3967ecae	0.00022118047
156	0x3931fc0b	0.00016973929
157	0x39346102	0.00017202276
158	0x389f1000	7.584691e-05
159	0x397358a6	0.0002320731
160	0xb9067ae3	-0.00012825015
161	0x38b1019b	8.440317e-05
162	0x3a2c249c	0.00065667345
163	0x3a031568	0.0005000443
164	0x3a06000e	0.00051117025
165	0xb8302e39	-4.2004718e-05
166	0x38d80c8b	0.00010302019
167	0x3973f96b	0.00023267201
168	0xba45a57b	-0.0007539612
169	0x3a6d8d43	0.0009061882
170	0x31b4b151	5.258848e-09
171	0x32eef453	2.7817952e-08
172	0x31eb905e	6.855813e-09
173	0x30062747	4.880473e-10
174	0x32d10f52	2.433777e-08
175	0x32f303ca	2.8290646e-08
176	0x32823af6	1.5160804e-08
177	0x328b898b	1.6244277e-08
178	0x3194e992	4.3339208e-09
179	0x3248be3c	1.16847865e-08
180	0x3895483d	7.118329e-05
181	0x3900141c	0.00012214523
182	0x39834bbf	0.00025042702
183	0x39b0d311	0.00033726593
184	0x394be5a2	0.00019445134
185	0x37ca7f85	2.4139657e-05
186	0x391685a6	0.00014354903
187	0x3901094a	0.00012305859
188	0x38e83417	0.000110723246
189	0x39ac0b40	0.00032814778
190	0x38498dbd	4.805414e-05
191	0xb93f3f2b	-0.00018238711
192	0xb6fe0aa6	-7.5710295e-06
193	0x39ac35da	0.0003284652
194	0xb9a00974	-0.0003052462
195	0x38f1aa18	0.00011523458
196	0x39aadc5a	0.00032589101
197	0xb95b272d	-0.00020900062
198	0xba714e21	-0.00092050625
199	0xb922d8d0	-0.00015530293
200	0x3990340f	0.00027504607
201	0x39a885e0	0.00032143202
202	0x380584ce	3.1833355e-05
203	0x38e4c020	0.00010907673
204	0x3840857d	4.5900688e-05
205	0x3934a3aa	0.00017227107
206	0x384eb9ba	4.92872e-05
207	0x39478291	0.00019026759
208	0x38cf3b49	9.881572e-05
209	0x388c5e45	6.693279e-05
210	0x38a9b3d5	8.092044e-05
211	0x38bb7eb2	8.940454e-05
212	0x389c1af7	7.443682e-05
213	0x38a616d3	7.919748e-05
214	0x38acf3e2	8.247026e-05
215	0x3897364b	7.210354e-05
216	0x388bb21a	6.6612105e-05
217	0x38b362df	8.553801e-05
218	0x387a74e7	5.971352e-05
219	0x38a66808	7.934874e-05
220	0x00000000	0.0
221	0x00000000	0.0
222	0x00000000	0.0
223	0x00000000	0.0
224	0x00000000	0.0
225	0x00000000	0.0
226	0x00000000	0.0
227	0x00000000	0.0
228	0x00000000	0.0
229	0x00000000	0.0
230	0x374f9644	1.2373148e-05
231	0x3821cc58	3.85757e-05
232	0x374718a6	1.1867063e-05
233	0x36ec1cad	7.0366864e-06
234	0x3738f216	1.102362e-05
235	0x37059d38	7.964023e-06
236	0x37b35b2f	2.1380923e-05
237	0x36e3e41e	6.7916835e-06
238	0x38414462	4.6078472e-05
239	0x372c9fb4	1.0289183e-05
240	0xb86b49cc	-5.6097095e-05
241	0xb9c9efe0	-0.00038516428
242	0x382d9893	4.138851e-05
243	0xb9541ca8	-0.00020228571
244	0x370dbfc2	8.448902e-06
245	0x38dbe16a	0.000104847204
246	0x39d70c85	0.00041017323
247	0xba32d37a	-0.00068216736
248	0xba3b8b76	-0.0007154265
249	0x397483be	0.00023318731
250	0x3a737e0e	0.0009288498
251	0x3ae975b6	0.001781157
252	0x3b0f53f9	0.002187012
253	0x3ac333b1	0.0014892725
254	0x3a565b64	0.00081770704
255	0x3a8220b7	0.0009927963

exp_avg_sq f4 [32, 10]
0	0x344ae44b	1.8895769e-07
1	0x333f21d5	4.4501423e-08
2	0x33ad0e0c	8.0584954e-08
3	0x33cf4b2b	9.6528616e-08
4	0x33a465e8	7.655382e-08
5	0x33e881b9	1.0826938e-07
6	0x33c75565	9.282193e-08
7	0x3440eba5	1.796712e-07
8	0x34260f43	1.5465507e-07
9	0x34533db6	1.9673357e-07
10	0x3585b8ec	9.963092e-07
11	0x3568f21f	8.677907e-07
12	0x3566fae3	8.6046765e-07
13	0x3572bad2	9.0423885e-07
14	0x358098e9	9.581246e-07
15	0x3590b96e	1.0782803e-06
16	0x3560ea3c	8.378736e-07
17	0x35648788	8.513384e-07
18	0x353e82dc	7.097094e-07
19	0x356a934f	8.7386155e-07
20	0x00000000	0.0
21	0x00000000	0.0
22	0x00000000	0.0
23	0x00000000	0.0
24	0x00000000	0.0
25	0x00000000	0.0
26	0x00000000	0.0
27	0x00000000	0.0
28	0x00000000	0.0
29	0x00000000	0.0
30	0x3182f585	3.8114103e-09
31	0x31f87b93	7.2317987e-09
32	0x30d48482	1.5462691e-09
33	0x310503fd	1.9356314e-09
34	0x30bc172a	1.3685384e-09
35	0x324182ac	1.126379e-08
36	0x31d66f3a	6.2408647e-09
37	0x30ecbead	1.7225453e-09
38	0x31f64d0f	7.168303e-09
39	0x3244b8cc	1.14507195e-08
40	0x368c3561	4.1785393e-06
41	0x368497c1	3.951573e-06
42	0x3676f6f9	3.6800614e-06
43	0x36890adc	4.0841824e-06
44	0x36959c97	4.4587755e-06
45	0x369a6da6	4.6023224e-06
46	0x36725670	3.6111123e-06
47	0x3673b4c6	3.6315046e-06
48	0x36541827	3.160452e-06
49	0x36775b27	3.6858926e-06
50	0x3638695c	2.7479464e-06
51	0x35ea6cfe	1.746608e-06
52	0x35dbda35	1.6380278e-06
53	0x35e127fb	1.6775442e-06
54	0x35cdac81	1.5323895e-06
55	0x361868af	2.27107e-06
56	0x35c4e7c8	1.4670595e-06
57	0x35e8449b	1.7305314e-06
58	0x3603b1c0	1.9623985e-06
59	0x3606eb69	2.0104583e-06
60	0x3701889b	7.720805e-06
61	0x36ec80a4	7.048324e-06
62	0x36e2884e	6.751193e-06
63	0x36f49eaf	7.29024e-06
64	0x3704beed	7.9122665e-06
65	0x370cccaa	8.392302e-06
66	0x36dced72	6.584153e-06
67	0x36dea355	6.63513e-06
68	0x36bcd38e	5.627465e-06
69	0x36e2eaca	6.762658e-06
70	0x3581cc15	9.670645e-07
71	0x350b809b	5.196868e-07
72	0x35262ee0	6.190803e-07
73	0x35123f32	5.44812e-07
74	0x34b40165	3.3528627e-07
75	0x350d6dad	5.268619e-07
76	0x34b446f1	3.357923e-07
77	0x35316330	6.6081975e-07
78	0x34bd16fc	3.5220717e-07
79	0x352da6b0	6.4690084e-07
80	0x2def48ef	2.7203543e-11
81	0x2b83b713	9.358923e-13
82	0x2e40f640	4.387446e-11
83	0x2e9e6d79	7.2044544e-11
84	0x2e105116	3.2813828e-11
85	0x2b430eb1	6.9298305e-13
86	0x2e8a744b	6.296171e-11
87	0x2d1f05f6	9.039427e-12
88	0x2e11d4e0	3.3158254e-11
89	0x2c96db73	4.28762e-12
90	0x3677cd5a	3.6925398e-06
91	0x361be8a6	2.323222e-06
92	0x360fb291	2.14126e-06
93	0x364a2ef2	3.0127671e-06
94	0x36431469	2.9069145e-06
95	0x3613eacb	2.2041374e-06
96	0x3643e3a3	2.9189766e-06
97	0x360db58e	2.1116316e-06
98	0x36648091	3.4049483e-06
99	0x36289270	2.5119189e-06
100	0x3729f39a	1.0129903e-05
101	0x36fe5fec	7.5809567e-06
102	0x370f39e1	8.53694e-06
103	0x3701e1cf	7.741574e-06
104	0x36f5b812	7.3229976e-06
105	0x3738a902	1.1006605e-05
106	0x3701d8d8	7.739487e-06
107	0x3710608d	8.605549e-06
108	0x36d1f19a	6.2568115e-06
109	0x37141373	8.826016e-06
110	0x3211d08f	8.487532e-09
111	0x327fc27e	1.4887176e-08
112	0x31feb991	7.4134694e-09
113	0x328f795d	1.670258e-08
114	0x315ba332	3.196146e-09
115	0x32036e31	7.650258e-09
116	0x32ae0ebb	2.0262965e-08
117	0x31a4a7fe	4.7921267e-09
118	0x31ae581a	5.0740825e-09
119	0x3211d5c3	8.488715e-09
120	0x3350c0a3	4.8603976e-08
121	0x339082a1	6.729284e-08
122	0x32d6c033	2.5000281e-08
123	0x32b70249	2.1305043e-08
124	0x330f55fd	3.3372988e-08
125	0x33610fc6	5.240124e-08
126	0x33593956	5.0576396e-08
127	0x332fa223	4.0892825e-08
128	0x338323ec	6.106697e-08
129	0x33795eaf	5.8060944e-08
130	0x339fc88a	7.440492e-08
131	0x33fb8c64	1.1713635e-07
132	0x33c34d39	9.094442e-08
133	0x341f7c2d	1.4853204e-07
134	0x340a0620	1.285448e-07
135	0x34137373	1.3732442e-07
136	0x33a0a44d	7.480467e-08
137	0x33edcdb8	1.10735925e-07
138	0x3364845a	5.320576e-08
139	0x3400b342	1.1986143e-07
140	0x338de321	6.607139e-08
141	0x33d80dad	1.00607714e-07
142	0x3393dfcd	6.88593e-08
143	0x339e5f19	7.3747465e-08
144	0x33c95087	9.37444e-08
145	0x33a67af2	7.752341e-08
146	0x338fccdf	6.696222e-08
147	0x338b723a	6.4934696e-08
148	0x338c27a2	6.526467e-08
149	0x3390a38a	6.73527e-08
150	0x32cfd47a	2.4194595e-08
151	0x32e2e590	2.6414256e-08
152	0x32c6856c	2.3110907e-08
153	0x32cc3ccd	2.3776375e-08
154	0x32f3b303	2.8370328e-08
155	0x32d0918c	2.4280574e-08
156	0x32c80c57	2.3288676e-08
157	0x32afd521	2.0469601e-08
158	0x3297b1a3	1.7659493e-08
159	0x32aef1c2	2.0366205e-08
160	0x34c66e15	3.696047e-07
161	0x35036212	4.8944014e-07
162	0x34ee0802	4.433678e-07
163	0x34cd8b75	3.8285694e-07
164	0x34909a9b	2.693458e-07
165	0x353a5b60	6.942337e-07
166	0x34c333fd	3.6359407e-07
167	0x34b85d80	3.43407e-07
168	0x3496ade5	2.8066202e-07
169	0x34c2d6f9	3.629173e-07
170	0x2f66de2b	2.0997308e-10
171	0x32164232	8.7462e-09
172	0x3092eef7	1.0690816e-09
173	0x2e8b6a45	6.3398654e-11
174	0x31d7fbe4	6.28596e-09
175	0x32185ddf	8.868908e-09
176	0x319c9464	4.5570676e-09
177	0x3170e735	3.5056023e-09
178	0x3041176c	7.0246275e-10
179	0x310c3f3a	2.0408621e-09
180	0x34bc6d7d	3.5097392e-07
181	0x34aa55be	3.1727353e-07
182	0x34be5a1f	3.545583e-07
183	0x34269e20	1.551748e-07
184	0x34277135	1.5594271e-07
185	0x348e3af8	2.6492467e-07
186	0x340e845f	1.3272937e-07
187	0x33b447e9	8.3949836e-08
188	0x348e8b27	2.6550808e-07
189	0x3434bb91	1.6832043e-07
190	0x3448b200	1.8691208e-07
191	0x3434058b	1.6765823e-07
192	0x342067de	1.4938948e-07
193	0x344c744d	1.904129e-07
194	0x34b02bf1	3.2814526e-07
195	0x33ef420a	1.1141317e-07
196	0x33f83082	1.15572234e-07
197	0x346c66b4	2.2016576e-07
198	0x348f3450	2.6673888e-07
199	0x3413b933	1.3757817e-07
200	0x3485f207	2.4949279e-07
201	0x34a28025	3.026809e-07
202	0x33d53e93	9.9299676e-08
203	0x33d78272	1.00354455e-07
204	0x33981c0a	7.083152e-08
205	0x347c806c	2.3516048e-07
206	0x343cfd5f	1.760104e-07
207	0x34294c23	1.576705e-07
208	0x33a68445	7.754037e-08
209	0x33f3a45b	1.13454654e-07
210	0x345a9bff	2.0359583e-07
211	0x348232d4	2.425137e-07
212	0x3444ee4a	1.8340612e-07
213	0x346090a9	2.0914253e-07
214	0x3490b0d7	2.6950758e-07
215	0x346a761f	2.183592e-07
216	0x343f987f	1.7843739e-07
217	0x343e35f7	1.7714761e-07
218	0x342992cd	1.5792757e-07
219	0x3440f5f6	1.7970874e-07
220	0x00000000	0.0
221	0x00000000	0.0
222	0x00000000	0.0
223	0x00000000	0.0
224	0x00000000	0.0
225	0x00000000	0.0
226	0x00000000	0.0
227	0x00000000	0.0
228	0x00000000	0.0
229	0x00000000	0.0
230	0x3103a7ac	1.915832e-09
231	0x329e79b7	1.844897e-08
232	0x31b14a14	5.1597997e-09
233	0x3121e2ab	2.355743e-09
234	0x3198b937	4.4448387e-09
235	0x31d989f7	6.331216e-09
236	0x31c1b6d3	5.637824e-09
237	0x30f5fc33	1.7897775e-09
238	0x327cbeec	1.4711741e-08
239	0x318d12fe	4.1057993e-09
240	0x34891e6d	2.5540376e-07
241	0x35523dcc	7.832102e-07
242	0x349856ee	2.8375456e-07
243	0x357cec46	9.422114e-07
244	0x34d425eb	3.9515666e-07
245	0x3543fdef	7.301268e-07
246	0x3505e12c	4.987403e-07
247	0x35809e63	9.58284e-07
248	0x3578f45b	9.2742783e-07
249	0x355f03ea	8.307967e-07
250	0x36c05a9b	5.7325938e-06
251	0x365be391	3.2766004e-06
252	0x369d92f7	4.6960736e-06
253	0x367edae6	3.7976365e-06
254	0x3683a1b8	3.922931e-06
255	0x368c5009	4.1816425e-06

exp_avg f4 [32]
0	0xbab9f8e3	-0.0014188554
1	0x3af91f66	0.001900655
2	0x00000000	0.0
3	0xb76abf33	-1.3992004e-05
4	0x3b4e2270	0.0031453632
5	0xbbc7c2cc	-0.0060962196
6	0x3b981c8f	0.0046420763
7	0xbace59c5	-0.0015743306
8	0xb73e295e	-1.1334514e-05
9	0x3b208e6d	0.0024498955
10	0xbc0178b8	-0.007902317
11	0xb9babfec	-0.00035619678
12	0xba2e5642	-0.00066504267
13	0xb4df95b3	-4.1645907e-07
14	0xba021b8e	-0.00049632124
15	0xb91cd4db	-0.00014956614
16	0xbb4461e0	-0.0029965565
17	0x33047217	3.083741e-08
18	0xb92b1bb5	-0.00016318152
19	0xbb02e8be	-0.001997515
20	0x39f007a0	0.00045782048
21	0xb8344482	-4.2979147e-05
22	0x00000000	0.0
23	0x387d283f	6.0357383e-05
24	0xbad6b328	-0.0016380297
25	0xbbedc325	-0.007255929
26	0xbba1e08b	-0.0049400977
27	0xbb676235	-0.0035306339
28	0xbc6cd890	-0.014455929
29	0x00000000	0.0
30	0xb9fcb985	-0.00048203408
31	0xbba6b6d3	-0.0050877123

exp_avg_sq f4 [32]
0	0x34dc4e35	4.1035096e-07
1	0x36361a8a	2.7135561e-06
2	0x00000000	0.0
3	0x32a31256	1.8984036e-08
4	0x3734c4ec	1.07746855e-05
5	0x370d7a0f	8.432674e-06
6	0x37a993ff	2.0215286e-05
7	0x3602d368	1.9494564e-06
8	0x2edd12a8	1.00532305e-10
9	0x3710bcab	8.6269965e-06
10	0x3808a983	3.2582797e-05
11	0x33078b86	3.1559033e-08
12	0x340f777c	1.3361381e-07
13	0x34606e93	2.0901852e-07
14	0x34074a22	1.2599824e-07
15	0x334be69b	4.7474355e-08
16	0x35d35dd8	1.5748037e-06
17	0x324a3308	1.1769551e-08
18	0x353250e6	6.642789e-07
19	0x35304a03	6.567281e-07
20	0x351b46ec	5.7845205e-07
21	0x34d437c2	3.9528646e-07
22	0x00000000	0.0
23	0x32e3209b	2.6441105e-08
24	0x360c08ba	2.0866705e-06
25	0x37917aa9	1.7342465e-05
26	0x36cb007b	6.0499274e-06
27	0x376f97df	1.428087e-05
28	0x382099f7	3.8290364e-05
29	0x00000000	0.0
30	0x36dc2ce2	6.561736e-06
31	0x375e8dac	1.3265217e-05

exp_avg f4 [1, 32]
0	0x3b20b2ca	0.002452063
1	0xbcf8ddcd	-0.0303792
2	0x00000000	0.0
3	0xb5d5df72	-1.5934768e-06
4	0xbbe8a267	-0.007099438
5	0x3c686baf	0.01418583
6	0xbc913e35	-0.017729858
7	0x3b841dbf	0.0040318663
8	0x38807c61	6.126683e-05
9	0x3b093267	0.0020934583
10	0x3c838585	0.016054878
11	0x3a672f85	0.00088190316
12	0x3afc511a	0.0019250244
13	0xb9980cba	-0.0002900118
14	0xbb962e60	-0.004583165
15	0x3af09bdf	0.0018357
16	0x3c2bd5ca	0.010487983
17	0x319c0833	4.5411297e-09
18	0x396df32f	0.00022692674
19	0x3ba477fb	0.0050191856
20	0x3b2a15be	0.00259529
21	0xbc05f84c	-0.008176874
22	0x00000000	0.0
23	0x38febff4	0.00012147418
24	0x3aceaa4c	0.0015767305
25	0x3c484859	0.01222428
26	0x3b98d248	0.0046637394
27	0xba3e095a	-0.00072493183
28	0x3c88500a	0.016639728
29	0x00000000	0.0
30	0xbcee0cbe	-0.02905881
31	0x3bcc8165	0.006241011

exp_avg_sq f4 [1, 32]
0	0x35b60a35	1.3563027e-06
1	0x3a41ffaf	0.00074004655
2	0x00000000	0.0
3	0x348aeac0	2.5875306e-07
4	0x39240cdf	0.00015645054
5	0x37c46296	2.3410928e-05
6	0x3998cce5	0.00029144358
7	0x36df92bf	6.6630014e-06
8	0x31c71a9d	5.794688e-09
9	0x377389b5	1.4515991e-05
10	0x388302c0	6.247079e-05
11	0x34efb216	4.4646794e-07
12	0x368b98a1	4.160291e-06
13	0x35f578b9	1.8289057e-06
14	0x371cc8af	9.34505e-06
15	0x3907aa80	0.0001293812
16	0x37ec5bad	2.8176082e-05
17	0x306642ac	8.376826e-10
18	0x35b7ebc1	1.3703176e-06
19	0x36566269	3.1945767e-06
20	0x369103a0	4.3217588e-06
21	0x38554d73	5.0855288e-05
22	0x00000000	0.0
23	0x33b224f4	8.295493e-08
24	0x35d3a010	1.5767309e-06
25	0x3822c25d	3.8804825e-05
26	0x3712b970	8.745454e-06
27	0x39307d4d	0.00016831346
28	0x37c8e35e	2.3947734e-05
29	0x00000000	0.0
30	0x388feadc	6.862517e-05
31	0x380b1902	3.3163473e-05
