scripts/checkpoints/best_model.ckpt (torch, 248492 bytes, 14 tensors)

conv1.weight f4 [16, 1, 3]
0	0xbe020c53	-0.12700014
1	0xbd21fd09	-0.039547954
2	0xbe81d08e	-0.25354427
3	0x3e9c7b9b	0.30563053
4	0xbe8f20c4	-0.27954686
5	0xbebf2974	-0.37336314
6	0xbe12437a	-0.14283553
7	0x3e7980f2	0.24365595
8	0xbf197bf0	-0.5995474
9	0xbf00fec9	-0.5038877
10	0x3dad5cb4	0.08464947
11	0xbf45b5f3	-0.7723076
12	0xbf0c1d93	-0.54732627
13	0xbc8608c3	-0.0163616
14	0xbd68175c	-0.056662902
15	0x3e1e8455	0.15480168
16	0x3e44c0aa	0.1921412
17	0x3db51649	0.08842141
18	0x3e901d75	0.28147474
19	0x3d066bf3	0.032817792
20	0x3e3c4500	0.18385696
21	0x3bd311ac	0.0064413156
22	0x3ed0174f	0.40642783
23	0x3eb87eb2	0.3603416
24	0xbee6ca00	-0.4507599
25	0x3e864b2e	0.26229233
26	0xbdc3a807	-0.09553533
27	0x3ed1a0ff	0.40943143
28	0x3e23d0d3	0.15997629
29	0x3e9c5af5	0.30538145
30	0x3ea57c36	0.32321328
31	0xbecd41c7	-0.40089247
32	0xbf0ddf7e	-0.55419147
33	0x3f00e98c	0.50356364
34	0xbee5c92f	-0.44880053
35	0x3e943a5a	0.2895077
36	0x3ed31b38	0.41231704
37	0x3d1954a2	0.037434228
38	0xbf190874	-0.59778523
39	0x3d203360	0.039111495
40	0xbe8904af	-0.26761386
41	0xbebb6ba2	-0.36605555
42	0xbe9afce0	-0.30271053
43	0xbe9e2d5e	-0.30893987
44	0x3f0ef23a	0.5583836
45	0x3e77ebd8	0.24211061
46	0xbef5cdcf	-0.48008582
47	0x3da2ae38	0.07943386

conv1.bias f4 [16]
0	0xbf47e2a0	-0.7808018
1	0xbe3e8d6d	-0.18608637
2	0xbf1f40b7	-0.6220812
3	0xbe78f02d	-0.2431037
4	0xbf6b35e5	-0.9187911
5	0xbe222a3b	-0.15836422
6	0xbf14b6b2	-0.5809127
7	0xbf1a316a	-0.6023165
8	0x3e02ab8d	0.12760754
9	0xbf397338	-0.72441435
10	0x3eb9807a	0.36230832
11	0xbf38c483	-0.72174853
12	0xbc280be9	-0.010256746
13	0xbf13ace4	-0.57685685
14	0x3d454afb	0.04816721
15	0xbe4a3ca5	-0.19749697

conv2.weight f4 [32, 16, 4]
0	0x3e13d012	0.14434841
1	0x3e0619b8	0.13095748
2	0x3be8e00c	0.0071067866
3	0x3e5e809a	0.21728745
4	0xbdb6f9b9	-0.089343496
5	0x3cd5801c	0.026062064
6	0xbdb30e77	-0.08742993
7	0x3e1322bc	0.14368719
8	0xbdf9fc06	-0.12206273
9	0xbe846ae3	-0.25862798
10	0x3dbd37cf	0.0923916
11	0xbf47274a	-0.77794325
12	0xbe3a8af6	-0.18217072
13	0xbe1c7aea	-0.15281263
14	0xbd20e937	-0.03928491
15	0xbeb801f4	-0.3593899
16	0xbd2046f0	-0.03913015
17	0xbd93c0b8	-0.072144926
18	0xbea34f48	-0.31896424
19	0xbe4ae6d6	-0.1981462
20	0xbea7a8d9	-0.32746008
21	0xbe6f6c91	-0.23381259
22	0xbea36fcb	-0.3192123
23	0xbeaa3a04	-0.33247387
24	0xbed65353	-0.41860446
25	0x3d63acb0	0.05558461
26	0xbe828f8b	-0.2550014
27	0xbe99ccde	-0.30039114
28	0xbe036522	-0.12831548
29	0xbe628006	-0.2211915
30	0xbe3d0e6b	-0.18462531
31	0xbe4c40d7	-0.1994661
32	0xbe169f90	-0.14709306
33	0xbd47a913	-0.048745226
34	0xbe7abf6d	-0.24487086
35	0x3d9cb2b2	0.07651271
36	0xbebed71e	-0.37273496
37	0xbe865ee0	-0.2624426
38	0xbeb01ace	-0.3439545
39	0xbe940d8a	-0.2891658
40	0xbe53b765	-0.20675428
41	0xbdcf8b63	-0.10134008
42	0x3d8d8680	0.069104195
43	0xbd9396d3	-0.07206502
44	0x3d3901e4	0.04516782
45	0xbeb37c54	-0.35055792
46	0x3d40f3f2	0.047107644
47	0xbdcc2d38	-0.09969562
48	0xbe5804c9	-0.21095575
49	0xbd011e9b	-0.03152333
50	0x3d14f1e3	0.036363494
51	0xbe52edcd	-0.20598526
52	0x3e5cb9ef	0.21555303
53	0x39a99d43	0.0003235136
54	0x3d3edafe	0.046595566
55	0x3d33ed5f	0.043927547
56	0x3c234aac	0.009966534
57	0xbd436849	-0.047706876
58	0xbd9edbdb	-0.07756778
59	0xbd59cec8	-0.053175718
60	0xbe64e3eb	-0.22352569
61	0xbdae92c8	-0.0852409
62	0xbea56edf	-0.3231115
63	0xbe4a6d13	-0.19768171
64	0xbdc0431c	-0.093878
65	0x3cc05e32	0.023482416
66	0x3df39e4d	0.11895428
67	0x3db78d86	0.0896254
68	0x3e1fcdab	0.156058
69	0xbc6ab1e0	-0.014324635
70	0x3cef283b	0.029193988
71	0xbe293414	-0.16523772
72	0xbea282c1	-0.31740382
73	0xbe30d61a	-0.17269173
74	0xbe8f49f6	-0.27986115
75	0xbe0ce42e	-0.13758919
76	0xbe98fdee	-0.29881233
77	0xbdbfd8db	-0.09367534
78	0xbdd1ed0c	-0.10250291
79	0xbd72db34	-0.05929108
80	0xbe0ba8ff	-0.13638686
81	0xbe99d55b	-0.3004559
82	0xbd79c76d	-0.060981203
83	0xbe891a75	-0.26777998
84	0xbe76a994	-0.24088126
85	0x3d3163c4	0.043308035
86	0xb9c9241c	-0.0003836461
87	0xbe3e694c	-0.18594855
88	0x3bbe5967	0.0058089974
89	0xbd99b93b	-0.07506033
90	0xbe1e93f8	-0.15486133
91	0x3d83685c	0.06416389
92	0xbe056268	-0.1302582
93	0xbd79583e	-0.06087517
94	0xbe943e75	-0.289539
95	0xbddbacf5	-0.10726348
96	0xbd599dbe	-0.05312895
97	0x3db2298a	0.08699329
98	0xbe892c9b	-0.26791844
99	0xbe76cf2d	-0.24102469
100	0xbdb8f866	-0.09031753
101	0xbe063770	-0.13107085
102	0xbc082657	-0.008309922
103	0x3d453065	0.048141856
104	0xbdaf48e2	-0.08558823
105	0x3d3a0396	0.045413576
106	0xbcad0891	-0.021122249
107	0xbd0019ae	-0.03127449
108	0x3d8f8722	0.070081964
109	0xbe69dd31	-0.22838284
110	0xbd8dfa07	-0.069324546
111	0xbaaff9c3	-0.0013425875
112	0xbde9f7ec	-0.114242405
113	0xbd7b83d0	-0.061405003
114	0xbe7f4e2d	-0.24932165
115	0xbde73021	-0.11288477
116	0xbc86771f	-0.016414223
117	0x3d8a78d4	0.067613274
118	0x3df831a1	0.12118841
119	0xbe3ca587	-0.18422519
120	0xbea5c733	-0.3237854
121	0xbc1157cc	-0.00887103
122	0xbe8452e8	-0.25844502
123	0xbc25a856	-0.010110935
124	0xbe8c9a15	-0.27461305
125	0xbdd6d0ab	-0.10489019
126	0xbe0cb252	-0.13739899
127	0xbea740dd	-0.32666674
128	0xbe1be3cb	-0.15223615
129	0x3c09c54d	0.008408857
130	0x3bf2af2b	0.0074061356
131	0xbd76a46e	-0.060215406
132	0x3cb65f39	0.022262203
133	0xbdd88591	-0.10572351
134	0x3cc2cfd9	0.02378075
135	0xbd9579da	-0.07298632
136	0xbe08f037	-0.13372885
137	0xbdca71e5	-0.09885005
138	0xbe36ea7b	-0.17862885
139	0xbe29a629	-0.16567291
140	0xbdd2ecaa	-0.10299046
141	0xbdbcf61f	-0.092266314
142	0xbdfb8517	-0.12281244
143	0xbb292c62	-0.0025813808
144	0xbe6227d7	-0.2208551
145	0xbe92b3ca	-0.28652793
146	0xbdceb4f6	-0.10093109
147	0xbdca3d05	-0.0987492
148	0xbe4fd2b7	-0.20295225
149	0x3bc93f26	0.006141561
150	0xbe3d34e0	-0.18477201
151	0xbdeb4170	-0.114870906
152	0xbe6f5df0	-0.23375678
153	0xbe1634d4	-0.1466859
154	0xbda47d72	-0.08031739
155	0xbdd82fd4	-0.105559975
156	0xbe0a9ecd	-0.1353714
157	0xbe408664	-0.18801266
158	0xbde510f3	-0.111848734
159	0xbd1d16a5	-0.038351674
160	0xbe0ea878	-0.13931453
161	0xbeb44cbe	-0.352148
162	0xbd830069	-0.063965626
163	0x3cd84bf7	0.02640341
164	0xbd981fef	-0.07427966
165	0xbe0df167	-0.13861619
166	0xbd84adcf	-0.06478464
167	0xbe2c70f8	-0.16839969
168	0xbe2fbea6	-0.1716257
169	0xbd3a6b7f	-0.045512673
170	0xbd850eae	-0.064969406
171	0xbe3ba16d	-0.18323298
172	0xbe37d150	-0.1795094
173	0xbe82f048	-0.25573945
174	0xbd00eab4	-0.03147383
175	0xbda529cf	-0.08064615
176	0xbdfd1ba9	-0.123587914
177	0xbd3a070e	-0.045416884
178	0xbba950b7	-0.0051670927
179	0xbdebd12c	-0.11514506
180	0xbe153a20	-0.14572954
181	0xbc883c62	-0.016630355
182	0xbd941a31	-0.07231558
183	0xbd886816	-0.06660478
184	0xbe2babf7	-0.16764818
185	0xbcf82761	-0.030292215
186	0xbdc9aaac	-0.09847006
187	0xbd7986ad	-0.060919452
188	0xbddbe131	-0.10736311
189	0xbdcc5d25	-0.099787034
190	0xbdef7217	-0.11691683
191	0xbdc8b1de	-0.097995505
192	0xbe147900	-0.14499283
193	0xbdfa7173	-0.1222867
194	0xbdbc4ce5	-0.09194354
195	0xbcd3d832	-0.025859926
196	0xbe56d3ab	-0.20979182
197	0xbdb7401d	-0.089477755
198	0xbe02c03b	-0.12768643
199	0xbde39e68	-0.11114198
200	0xbd97c04c	-0.074097246
201	0xbe35e424	-0.1776281
202	0x3d99a943	0.07502987
203	0xbe05b1c5	-0.13056095
204	0xbdfdeb4e	-0.123983964
205	0x3b2f0507	0.0026705877
206	0x3cc186bc	0.023623817
207	0xbd2ef46f	-0.04271358
208	0x3db1b1d9	0.086765
209	0x3b484302	0.0030557518
210	0xbda40bde	-0.08010076
211	0x3cb32295	0.021867076
212	0x3c8eda6b	0.017438134
213	0xbe2e46f2	-0.17019251
214	0xbdde7e89	-0.108639784
215	0x3cab4111	0.02090505
216	0xbda20862	-0.07911755
217	0xbde7d3d2	-0.113196984
218	0x3db9050a	0.09034164
219	0xbc6361cc	-0.013878297
220	0xbd995ed9	-0.07488794
221	0xbe1b3792	-0.15157917
222	0xbe18dc57	-0.14927803
223	0xbdb93d45	-0.09044889
224	0xbe0fa2da	-0.14026967
225	0xbe4038cd	-0.18771668
226	0xbde5c454	-0.11219087
227	0xbc10d765	-0.008840417
228	0xbd281c36	-0.04104253
229	0xbe163e94	-0.14672309
230	0xbc54e832	-0.012994813
231	0xbe595ae2	-0.21226075
232	0xbd988960	-0.07448077
233	0xbe51d510	-0.20491433
234	0xbe596994	-0.21231681
235	0xbe99d4de	-0.30045217
236	0xbe40eb2e	-0.18839714
237	0xbcf9cd60	-0.030493438
238	0xbe1d054c	-0.15334052
239	0xbdd7efbc	-0.105437726
240	0xbe667144	-0.22504145
241	0xbd5d26b4	-0.05399199
242	0x3d2b282d	0.04178636
243	0xbe3082fa	-0.17237464
244	0xbdf7f92f	-0.12108075
245	0x3b0264ee	0.0019896585
246	0xbd3fa4a9	-0.04678789
247	0x3c7fd7e4	0.015615437
248	0xbdbcd3a6	-0.09220056
249	0xbdde0f62	-0.10842778
250	0xbe09cf6c	-0.13458031
251	0xbe00b2a5	-0.12568147
252	0xbe743006	-0.23846444
253	0x3d2bb656	0.041921936
254	0xbe4bc8fe	-0.19900891
255	0xbe786e82	-0.24260905

conv2.bias f4 [32]
0	0xbdd901c1	-0.10596038
1	0xbd6aa299	-0.05728397
2	0xbeb9cd43	-0.36289415
3	0xbcf984fc	-0.03045892
4	0xbc2d1aa6	-0.0105654355
5	0xbd0db257	-0.034593906
6	0xbee09a7c	-0.43867862
7	0xbe7c1ce6	-0.24620399
8	0xbe4c8bb6	-0.1997517
9	0xbe5278b2	-0.20553854
10	0xbf2f1b3b	-0.68400925
11	0xbe1d152f	-0.15340112
12	0x3f163026	0.5866722
13	0xbe340bf9	-0.17582692
14	0x3cf8bd9e	0.030363854
15	0xbe103f84	-0.1408673
16	0xbe70cf2f	-0.23516534
17	0xbea2a438	-0.31765914
18	0xbed4c5fc	-0.415573
19	0xbd61a035	-0.055084426
20	0xbe80d4ab	-0.25162253
21	0xbe549df0	-0.20763373
22	0xbe37217e	-0.1788387
23	0xbef2adf7	-0.4739835
24	0xbe9ba7aa	-0.30401355
25	0xbebab022	-0.36462504
26	0xbe2051bd	-0.1565618
27	0xbe38ba3a	-0.1803979
28	0xbe8b0b4f	-0.27157065
29	0xbe5a122e	-0.21295998
30	0xbda55f70	-0.08074844
31	0xbe739c22	-0.23790029

lstm.weight_ih_l0 f4 [256, 32]
0	0x3e7cfd4c	0.24706
1	0x3c421d67	0.01184783
2	0x3e0d80cc	0.13818663
3	0xbdb89ec2	-0.09014656
4	0xbe6ca805	-0.2311097
5	0xbea14d4a	-0.3150428
6	0xbe5992a1	-0.2124734
7	0x3e011349	0.12605013
8	0x3d463dfd	0.04839896
9	0x3e2ccd75	0.1687525
10	0xbd7d669e	-0.06186544
11	0xbd3f3010	-0.046676695
12	0xbe804d74	-0.25059092
13	0x3c8a6dce	0.016898062
14	0xbda93cd4	-0.08263555
15	0xbeb8c347	-0.36086485
16	0xbdead5e4	-0.11466578
17	0xbe5afce9	-0.2138554
18	0xbe116b81	-0.14201166
19	0x3e0f35d4	0.13985378
20	0xbe72f36d	-0.23725672
21	0xbcb69c26	-0.022291254
22	0xbe152b64	-0.14567333
23	0x3db9d8e0	0.09074569
24	0xbd5a77ae	-0.05333679
25	0xbd5ad33f	-0.053424116
26	0xbe4e206c	-0.20129555
27	0xbee6f6e9	-0.45110252
28	0xbc7df75e	-0.015500871
29	0xbdff211e	-0.124574885
30	0x3f3aa5ee	0.7290944
31	0xbd146f12	-0.036238737
32	0xbe5d88a7	-0.2163416
33	0x3c787536	0.015164664
34	0xbdc991b7	-0.09842246
35	0xbe0bf62d	-0.13668127
36	0xbeb77d77	-0.3583791
37	0xbea5a7e9	-0.32354668
38	0xbec27201	-0.37977603
39	0xbd01c7b9	-0.03168461
40	0x3dc0c742	0.094130054
41	0xbd00d46d	-0.031452585
42	0x3e2309b6	0.15921673
43	0xbe952641	-0.29130748
44	0xbcb5f245	-0.02221025
45	0xbe4893b3	-0.19587593
46	0x3cc7caa4	0.024388619
47	0xbed70207	-0.41993734
48	0xbd5b5e08	-0.053556472
49	0xbe07da14	-0.13266784
50	0xbe99d0c0	-0.30042076
51	0xbaeae03b	-0.0017919609
52	0xbe6648e5	-0.22488745
53	0x3ce87ece	0.028380778
54	0xbbd785b0	-0.006577216
55	0x3e109476	0.14119133
56	0xbd0ac778	-0.033881634
57	0xbd919348	-0.0710817
58	0xbe43ba0b	-0.19113939
59	0xbd8007b0	-0.06251466
60	0xbe0fdcc6	-0.14049062
61	0xbdcaae1a	-0.098964885
62	0x3c7db763	0.015485617
63	0x3ea9a24a	0.3313163
64	0x3dcc4218	0.09973544
65	0x3d7ea98f	0.062173422
66	0xbdb6ab4b	-0.0891939
67	0x3ddabd07	0.10680585
68	0xbe959e80	-0.29222488
69	0xbf0f4e8a	-0.55979216
70	0xbe195e88	-0.14977467
71	0xbc630949	-0.013857194
72	0xbd111557	-0.035420742
73	0xbdef5b57	-0.116873436
74	0xbefc5b1e	-0.49288267
75	0xbdcac3f5	-0.09900657
76	0x3e7681a5	0.24072893
77	0x3df347a2	0.11878897
78	0xbd0d1e0a	-0.034452476
79	0xbee767a6	-0.45196265
80	0xbe209483	-0.15681653
81	0x3ea74e24	0.32676804
82	0xbdbd0a13	-0.09230437
83	0x3e1f9051	0.15582396
84	0xbe4fbf35	-0.20287783
85	0x3db27265	0.08713225
86	0xbe9c2501	-0.30496982
87	0xbe879648	-0.26481843
88	0xbe329a31	-0.17441632
89	0xbe8a6871	-0.27032807
90	0xbe1bc517	-0.15211903
91	0xbe7a9663	-0.2447143
92	0x3bc7380a	0.0060796784
93	0xbe4e59da	-0.20151463
94	0xbec55d6b	-0.38547835
95	0xbccc0c3c	-0.024908178
96	0xbe95041d	-0.291047
97	0xbe3e942c	-0.1861121
98	0xbd65b9d9	-0.05608544
99	0xbda1552c	-0.07877573
100	0xbe8e003d	-0.27734557
101	0xbe96fef9	-0.29491404
102	0xbdf6ad48	-0.120447695
103	0xbd0fe195	-0.03512724
104	0x3d043257	0.03227457
105	0x3e9d71d6	0.30750912
106	0xbe7707c3	-0.24124055
107	0xbe9d19e9	-0.3068383
108	0xbee355cb	-0.44401392
109	0xbe67209d	-0.22571035
110	0xbe28b8ae	-0.164767
111	0x3d6d708d	0.057968665
112	0xbdb12b57	-0.086508445
113	0x3e167691	0.14693667
114	0xbe10c700	-0.14138412
115	0xbd429ec6	-0.0475147
116	0x3cc1691d	0.023609692
117	0xbb26382e	-0.0025363076
118	0xbec4dfe2	-0.3845206
119	0xbdbb6249	-0.09149606
120	0xbe716722	-0.23574498
121	0xbd921eae	-0.07134758
122	0xbe645b75	-0.22300513
123	0xbe427e3d	-0.18993469
124	0xbdb7d5ab	-0.08976301
125	0xbc3922bd	-0.011299786
126	0xbe69b579	-0.22823133
127	0xbca5eb89	-0.020253913
128	0x3d549cea	0.051907457
129	0xbe5dd779	-0.21664228
130	0x3e217e45	0.15770824
131	0x3d927f2b	0.071531616
132	0xbdafd0d9	-0.085847564
133	0x3cedec99	0.029043483
134	0xbe3e25b0	-0.18569064
135	0xbe23dbd5	-0.16001828
136	0xbb8fa6f4	-0.004383916
137	0x3d4aec12	0.04954154
138	0x3e67603a	0.22595301
139	0xbe536699	-0.20644607
140	0x3e3e64bb	0.18593113
141	0x3d8fee21	0.07027841
142	0x3d1d4c39	0.03840277
143	0xbe93099c	-0.2871827
144	0xbe95df1c	-0.2927178
145	0x3e8f912f	0.28040454
146	0x3e33132f	0.17487787
147	0x3e1ce2e5	0.15320928
148	0xbdbae536	-0.0912575
149	0x3dc0d5e5	0.09415797
150	0x3e1ef208	0.15522015
151	0xbdbd0a41	-0.092304714
152	0xbcb04e19	-0.021521615
153	0x3d09c924	0.03363909
154	0x3c347956	0.011015257
155	0xbe13c917	-0.14432178
156	0x3e3f6189	0.1868955
157	0x3df6467c	0.120251626
158	0xbcc0e255	-0.023545424
159	0x3d441b4e	0.047877602
160	0x3e7512bb	0.23932926
161	0xbe94982d	-0.2902235
162	0x3dab24c4	0.08356622
163	0x3d03c201	0.03216744
164	0xbdae4268	-0.0850876
165	0xbe323da0	-0.1740632
166	0xbe92d794	-0.28680098
167	0x3e4369d3	0.19083337
168	0x3e652bfe	0.22380063
169	0xbe8cdc16	-0.27511662
170	0x3e209339	0.15681161
171	0x3d5c6165	0.05380382
172	0xbdf492a6	-0.119420335
173	0xbe1c7588	-0.1527921
174	0xbb74dd3f	-0.0037363318
175	0xbe068509	-0.13136686
176	0xbea46bbe	-0.3211345
177	0x3dcc00b4	0.099610716
178	0xbcd0b685	-0.025477657
179	0x3ccf273f	0.025287269
180	0x3e7c94da	0.24666157
181	0x3e4c395b	0.19943754
182	0x3e60f0d5	0.2196687
183	0x3db9dfaa	0.09075864
184	0x3e85c248	0.26124787
185	0x3cfc4d1e	0.030798491
186	0xbcdacd7b	-0.026709309
187	0xbd32917f	-0.043595787
188	0x3dee5510	0.11637318
189	0x3ef61248	0.48060822
190	0x3e3bc905	0.18338402
191	0x3e1fee49	0.15618242
192	0x3e5ca545	0.2154742
193	0x3ccb4bb5	0.024816373
194	0x3bd0ac31	0.006368183
195	0x3e5bd965	0.21469648
196	0xbd6b3c96	-0.057430826
197	0x3d8cc974	0.06874362
198	0x3e6103d2	0.21974114
199	0x3c2d6dd0	0.010585263
200	0x3d932c37	0.07186168
201	0x3e035b51	0.12827803
202	0x3ea616a5	0.3243915
203	0x3de9eae8	0.11421758
204	0x3ee95a21	0.45576575
205	0xbe80258e	-0.25028652
206	0x3d06bdeb	0.032895964
207	0x3dbe579a	0.092940524
208	0x3e0d8e80	0.1382389
209	0x3eae92c8	0.3409636
210	0xbd507d91	-0.050901
211	0x3d0ec62c	0.03485696
212	0xbe1e65ae	-0.15468475
213	0x3e04fcf7	0.12987123
214	0xbdb41731	-0.08793486
215	0x3d36539d	0.044513334
216	0x3e4d14d2	0.20027474
217	0x3d18ac02	0.037273414
218	0xbc823043	-0.015892154
219	0x3d565c5c	0.052334175
220	0x3ca5750a	0.02019741
221	0x3e7f449a	0.24928513
222	0x3dfa1d78	0.12212652
223	0x3ecf0ec4	0.40440953
224	0x3cfb26f3	0.03065822
225	0xbe2fd7a5	-0.17172106
226	0xbd4229d6	-0.04740318
227	0xbcb560ae	-0.022140827
228	0x3e870df7	0.26377842
229	0x3dd07d9c	0.10180208
230	0x3e8bd52d	0.27311078
231	0xbd84e494	-0.0648891
232	0x3d6d6c57	0.05796465
233	0x3db932f1	0.090429194
234	0x3ebf0368	0.37307286
235	0xbe243e1a	-0.16039315
236	0xbe2aedb8	-0.16692245
237	0x3c848121	0.016174855
238	0xbdd0dda0	-0.101985216
239	0x3efd1b49	0.4943488
240	0x3dc1950d	0.09452257
241	0x3e86b8df	0.2631292
242	0xbe8c3b53	-0.2738901
243	0x3d07b145	0.03312804
244	0x3d4eb5c0	0.0504663
245	0xbd3dde7b	-0.046354752
246	0x3e7acca7	0.24492131
247	0xbde26f74	-0.11056414
248	0xbda3ae02	-0.07992174
249	0x3e2cfdef	0.16893743
250	0xbe17610a	-0.14783111
251	0x3e4b00fc	0.19824594
252	0x3db9c1e2	0.09070183
253	0x3da0269b	0.078198634
254	0xbe9a3858	-0.30121112
255	0x3e3c7d3d	0.1840715

lstm.weight_hh_l0 f4 [256, 64]
0	0x3ef9a48f	0.4875836
1	0x3e468b0c	0.1938898
2	0x3dd7ce74	0.10537425
3	0xbe6556c8	-0.22396386
4	0x3eb95c06	0.3620302
5	0x3e48d8d2	0.1961396
6	0xbe22e524	-0.15907723
7	0xbdb47374	-0.088110834
8	0x3e9e2118	0.30884624
9	0x3d1dc004	0.0385132
10	0xbee17c0b	-0.4403995
11	0xbecab4ac	-0.39590967
12	0x3ea06fb0	0.3133521
13	0x3e067ae1	0.13132812
14	0xbe845709	-0.25847653
15	0x3de59e00	0.11211777
16	0xbdfeeaaa	-0.12447102
17	0xbe4224c7	-0.18959342
18	0x3ebf8416	0.3740546
19	0xbea55ad5	-0.32295862
20	0x3dfa052f	0.1220802
21	0xbedc7317	-0.43056557
22	0x3ed6db05	0.41963974
23	0x3d0cf4b1	0.034413043
24	0x3c06f6fb	0.008237596
25	0xbd737a32	-0.059442706
26	0x3e134c7b	0.14384644
27	0xbeae9155	-0.34095255
28	0x3cd62aa3	0.026143378
29	0xbeb3e817	-0.35138008
30	0x3cfdbb41	0.030973079
31	0xbdc26252	-0.09491409
32	0x3d805390	0.06265938
33	0x3d97c235	0.07410089
34	0x3e64c09d	0.22339101
35	0x3e063d20	0.13109255
36	0x3d187ace	0.03722649
37	0xbdf65bde	-0.12029241
38	0xbef2fe29	-0.47459534
39	0x3e7a7188	0.24457371
40	0x3e858c7e	0.2608375
41	0xbd593695	-0.05303057
42	0xbe44347c	-0.19160646
43	0x3f0bef3c	0.5466192
44	0x3d58df9f	0.052947637
45	0x3e7d5e2b	0.24742953
46	0xbdf95d95	-0.121760525
47	0xbe6fa63f	-0.23403262
48	0xbe995c8e	-0.29953426
49	0xbd57b9ad	-0.05266731
50	0xbd8fc669	-0.070202656
51	0x3da17950	0.07884467
52	0xbe942626	-0.28935355
53	0x3deb6d6e	0.114954814
54	0xbe4dd404	-0.20100409
55	0x3d1bb8ea	0.038018145
56	0x3f08d056	0.53442895
57	0x3e0980fc	0.1342811
58	0x3c477523	0.012173924
59	0x3d0b8e9f	0.03407156
60	0xbe988c3a	-0.29794484
61	0xbf16cd9e	-0.58907497
62	0xbe88a80c	-0.2669071
63	0x3d577585	0.05260231
64	0x3e79d38e	0.24397108
65	0xbda5d720	-0.080976725
66	0x3e23bdee	0.15990421
67	0x3dc19a7f	0.09453296
68	0x3eb58431	0.35452417
69	0x3e5ae8dd	0.21377893
70	0xbe78582c	-0.24252385
71	0xbe07cef6	-0.13262543
72	0xbdc6be8d	-0.097043134
73	0x3d7e87a1	0.062141065
74	0xbeb943a6	-0.36184424
75	0xbe6f6b0d	-0.2338068
76	0x3e3427ad	0.1759326
77	0xbda6be5a	-0.081417754
78	0xbf280c7a	-0.6564404
79	0x3e98aa76	0.2981755
80	0x3d6a33e9	0.05717841
81	0xbe63371c	-0.22188991
82	0x3e868d00	0.2627945
83	0xbdd9db27	-0.10637503
84	0x3e2185c7	0.15773688
85	0xbe8ce389	-0.27517346
86	0x3e85182f	0.25995013
87	0x3d271af2	0.04079718
88	0x3e01c04e	0.12671015
89	0x3cb9d56b	0.022684773
90	0x3e242130	0.16028285
91	0xbec8627b	-0.39137635
92	0xbe5dd7e2	-0.21664384
93	0xbe26bb9d	-0.16282506
94	0xbdd710d9	-0.1050126
95	0xbef64546	-0.48099726
96	0x3e1f8b8d	0.15580578
97	0x3e96ccf3	0.2945324
98	0x3e0eb0b9	0.13934602
99	0x3e01d896	0.12680277
100	0xbe6a44c9	-0.22877802
101	0xbe37a0a1	-0.17932369
102	0xbec6dcf5	-0.38840452
103	0x3d7506ec	0.059821054
104	0x3e185710	0.14876962
105	0xbe572c30	-0.2101295
106	0xbe8c5dad	-0.2741522
107	0x3e2d4d6c	0.16924065
108	0x3d8f0ef5	0.06985275
109	0x3e5f5506	0.21809778
110	0xbe59c3f5	-0.21266158
111	0xbeab363d	-0.33439818
112	0xbe3d435a	-0.18482724
113	0x3cba2df6	0.022726994
114	0x3dad20f0	0.08453548
115	0x3e086adb	0.13322012
116	0xbe9053dd	-0.28188983
117	0x3cfd7f41	0.030944468
118	0x3eafd9be	0.34345812
119	0x3e67e3da	0.22645512
120	0x3e875af9	0.26436594
121	0xbd8bf962	-0.06834675
122	0xbcd13555	-0.025538126
123	0x3eca325d	0.3949155
124	0xbe807a4f	-0.25093314
125	0xbed557ff	-0.41668698
126	0xbe82971e	-0.25505918
127	0x3d98cbd4	0.07460752
128	0x3d27f4c4	0.04100491
129	0xbdfa31a6	-0.12216501
130	0xbd48d5ab	-0.049031895
131	0xbd90074d	-0.070326425
132	0x3e68985f	0.22714375
133	0x3f2eb916	0.6825117
134	0xbe3b1fa1	-0.18273784
135	0x3e21d32a	0.15803209
136	0xbc653a29	-0.013990917
137	0x3e209e63	0.1568542
138	0xbe86e8e9	-0.2634957
139	0xbeb5b5fc	-0.35490406
140	0x3ed6ba19	0.41938856
141	0xbd24c653	-0.0402282
142	0xbedacd8f	-0.42734954
143	0xbd1ba6b8	-0.038000792
144	0x3e107159	0.14105739
145	0xbf171fc1	-0.5903283
146	0x3e206f1a	0.15667382
147	0xbe57763e	-0.210412
148	0x3e3ca94d	0.18423958
149	0xbdaab547	-0.08335357
150	0x3d981db1	0.07427538
151	0xbc85429b	-0.016267112
152	0xbc87f39a	-0.01659565
153	0x3eb8360a	0.3597873
154	0x3e317e9d	0.17333455
155	0xbe7e91d1	-0.24860312
156	0x3d71afad	0.059005428
157	0xbd8aecf7	-0.06783479
158	0xbea65ce1	-0.32492736
159	0xbe997691	-0.2997327
160	0x3c4ff4b2	0.012692617
161	0x3e0d5031	0.13800122
162	0x3e817f2d	0.2529234
163	0xbc47c59b	-0.012193109
164	0xbea1a198	-0.315686
165	0x3d24bbc4	0.04021813
166	0xbe71ca29	-0.23612274
167	0x3d328b3c	0.043589815
168	0xbae89be9	-0.001774666
169	0xbd529ba2	-0.051417954
170	0x3d6b3c84	0.05743076
171	0x3e19bbb7	0.15013014
172	0xbcb12145	-0.02162231
173	0x3e881b73	0.26583442
174	0x3d8a114d	0.06741581
175	0xbdc94ca4	-0.09829071
176	0xbe1b658e	-0.15175459
177	0x3dd2a88f	0.10286056
178	0x3e187b51	0.14890791
179	0xbd24d8f1	-0.040245954
180	0xbf099e22	-0.53756917
181	0xbe961d35	-0.29319158
182	0x3e83753d	0.25675383
183	0x3e918a1f	0.2842569
184	0x3d7913b1	0.060809795
185	0xbdd27fc1	-0.102782734
186	0xbce65578	-0.028116927
187	0x3e51a0a1	0.20471431
188	0xbf0f3320	-0.55937386
189	0xbf04de70	-0.5190191
190	0xbddf4200	-0.109012604
191	0xbdc776b6	-0.09739439
192	0x3de1c2fa	0.11023517
193	0xbd13796e	-0.036004476
194	0x3ea14d4f	0.31504294
195	0x3d1798de	0.03701102
196	0x3d8fc3b1	0.07019747
197	0x3e0649ee	0.1311414
198	0xbe03df17	-0.12878071
199	0xbe0d19a5	-0.13779314
200	0x3c15c1f5	0.009140481
201	0xbeb605c5	-0.35551277
202	0xbdc048f5	-0.093889154
203	0xbdc20208	-0.09473044
204	0x3db9b6ad	0.09068046
205	0x3c6072b0	0.013699219
206	0xbe759f1a	-0.23986474
207	0x3d87e3bf	0.06635236
208	0x3ddbd422	0.107338205
209	0xbf05a7fe	-0.5220946
210	0x3da06918	0.07832545
211	0xbe052bad	-0.13004942
212	0x3ebd026d	0.36915913
213	0xbc7294b4	-0.014805961
214	0x3dff88af	0.12477242
215	0x3cdfbba2	0.02731115
216	0x3da6f3e1	0.08151985
217	0x3ea189c1	0.3155041
218	0xbcd76700	-0.026294231
219	0xbe2582ba	-0.1616315
220	0x3e11bd2c	0.1423232
221	0xbe382ca6	-0.17985782
222	0xbd46bb7a	-0.048518635
223	0xbde23546	-0.11045317
224	0x3e3a066f	0.18166517
225	0x3e60db0e	0.21958563
226	0x3ca7fd44	0.020506509
227	0x3e1ce613	0.15322141
228	0xbe4f2563	-0.20229106
229	0x3e0a1666	0.13485107
230	0xbe7f65b0	-0.24941134
231	0x3e9c5ad7	0.30538055
232	0x3e218541	0.15773489
233	0xbe1c5f13	-0.15270643
234	0xbe1892cc	-0.14899749
235	0xbe9e5334	-0.30922854
236	0x3d2c3378	0.042041272
237	0x3e224170	0.15845275
238	0xbe2db611	-0.16963984
239	0xbe627828	-0.22116148
240	0xbdb51002	-0.08840944
241	0xbd823133	-0.0635704
242	0x3db6ca45	0.089252986
243	0xbd87ff11	-0.06640447
244	0xbeb2ebfb	-0.34945664
245	0xbe2461cc	-0.16052932
246	0x3e37bd4a	0.17943302
247	0x3e92f8c2	0.28705412
248	0x3e0a3645	0.13497265
249	0xbb7d9ae8	-0.0038697068
250	0xbd19af1c	-0.037520513
251	0x3e7b86b3	0.24563102
252	0x3cea076f	0.028567998
253	0xbeb7cd58	-0.35898852
254	0xbeaedd6b	-0.34153304
255	0xbdaa1aa1	-0.0830586

lstm.bias_ih_l0 f4 [256]
0	0xbe083a41	-0.13303472
1	0xbe2447af	-0.1604297
2	0xbe2a6880	-0.16641426
3	0xbeacd06c	-0.33752763
4	0xbda619fe	-0.08110426
5	0x3f002c93	0.50068015
6	0xbe022948	-0.1271106
7	0xbcb33967	-0.021877958
8	0xbe844b2f	-0.2583861
9	0xbea661d6	-0.32496518
10	0xbe966d10	-0.29380083
11	0xbf31f58f	-0.6951532
12	0xbf200591	-0.62508494
13	0xbf05faff	-0.52336115
14	0xbd370c37	-0.044689383
15	0xbe8b453d	-0.27201262
16	0xbe5be1ea	-0.21472898
17	0xbdbe44e0	-0.092904806
18	0xbe4f210f	-0.20227455
19	0xbe7abde6	-0.24486503
20	0xbd9d4bfa	-0.07680507
21	0x3c8aa5e4	0.016924806
22	0x3c3986da	0.011323655
23	0xbe09e970	-0.13467956
24	0xbe886c08	-0.2664492
25	0xbebf3a53	-0.37349185
26	0xbe97698b	-0.2957271
27	0x3eb8784d	0.36029282
28	0x3e80a742	0.25127608
29	0xbe94fa21	-0.29097083
30	0x3e4a6b8f	0.19767593
31	0xbe85b5c2	-0.26115233
32	0xbd8894a1	-0.06668974
33	0x3ca777ad	0.020442808
34	0xbe3d1f04	-0.18468863
35	0xbdddff7e	-0.10839747
36	0xbe278e8a	-0.16362968
37	0xbd699256	-0.057024322
38	0xbea6706a	-0.3250764
39	0xbe69b517	-0.22822987
40	0xbd8362a7	-0.06415301
41	0xbe1765b1	-0.14784886
42	0xbc093296	-0.008373877
43	0xbe89cd5a	-0.26914483
44	0xbd71df80	-0.059051037
45	0x3ec26f5d	0.37975588
46	0xbe85363e	-0.26017946
47	0xbdee4302	-0.116338745
48	0x3e3c027c	0.18360323
49	0xbe0e08d9	-0.13870563
50	0xbea9d723	-0.3317195
51	0xbebdcf1c	-0.37072074
52	0xbec45730	-0.3834777
53	0xbed76fb3	-0.42077407
54	0xbf51e739	-0.8199344
55	0xbd549c8a	-0.0519071
56	0xbe1b2b14	-0.15153152
57	0xbea39227	-0.31947443
58	0xbd91cc1b	-0.07119008
59	0xbd3ae116	-0.045624815
60	0xbf4e0496	-0.8047575
61	0xbdfce60e	-0.12348567
62	0xbfc75a57	-1.5574445
63	0xbe413a6f	-0.18869947
64	0xbcb067fe	-0.021533962
65	0xbb06ed45	-0.00205882
66	0xbe1498ec	-0.1451146
67	0xbe786a8d	-0.24259396
68	0xbe3e643f	-0.18592928
69	0x3ef2a07d	0.47388068
70	0x3e13c7e8	0.14431727
71	0x3f0bc37f	0.5459518
72	0xbeb32053	-0.349856
73	0xbe6ad14b	-0.22931401
74	0xbc344b75	-0.0110043185
75	0x3ec50176	0.38477677
76	0x3d10d7c8	0.035362035
77	0xbddbca1f	-0.10731911
78	0xbe260727	-0.16213666
79	0x3c456dd6	0.012050113
80	0xbe8ed62d	-0.27897778
81	0x3ee95c7b	0.4557837
82	0xbe8f8ddd	-0.2803792
83	0xbe6f1016	-0.2334598
84	0xbde66586	-0.11249833
85	0xbd39b81d	-0.0453416
86	0xbe1ff168	-0.15619433
87	0xbdf86a12	-0.12129606
88	0xbe1558e0	-0.14584684
89	0xbe009957	-0.12558495
90	0xbd40c807	-0.04706576
91	0x3eb3bdca	0.35105735
92	0xbe6df558	-0.23238122
93	0x3c37a190	0.011207953
94	0xbe7fd26e	-0.24982616
95	0x3eba97bf	0.36443898
96	0x3c917338	0.017755136
97	0xbe9998c2	-0.29999357
98	0xbe50efba	-0.20403948
99	0xbdcdf50c	-0.100565046
100	0xbe8a0db2	-0.26963574
101	0x3f1899bc	0.5960958
102	0x3e9298fc	0.28632343
103	0xbd9ea71a	-0.07746716
104	0x3e043094	0.12909156
105	0xbe3586e5	-0.1772724
106	0xbdda2af3	-0.10652723
107	0xbe04f631	-0.1298454
108	0xbdbacd78	-0.09121221
109	0x3f10cab1	0.5655928
110	0x3b7f564e	0.0038961354
111	0xbe0c1fb3	-0.13683967
112	0x3e988d5b	0.29795346
113	0xbe0630b2	-0.13104513
114	0xbea7bd0a	-0.32761413
115	0xbee6fed7	-0.45116302
116	0xbd942d19	-0.07235164
117	0xbea85b07	-0.32881948
118	0x3eec6cce	0.4617676
119	0x3df11381	0.11771298
120	0xbbdc9782	-0.0067319283
121	0xbcc02836	-0.023456674
122	0x3c0cc85d	0.008592692
123	0xbe3fc933	-0.18729095
124	0x3ddd9c3a	0.108208135
125	0x3cb9b9f0	0.02267167
126	0x3ea88de5	0.32920757
127	0xbe248d58	-0.16069543
128	0xbdf60e92	-0.12014498
129	0xbe11cc50	-0.14238095
130	0xbdee729b	-0.11642953
131	0x3d8ca167	0.068667226
132	0xbe2eb743	-0.17062096
133	0xbe426020	-0.18981981
134	0xbc0c1925	-0.008550917
135	0x3c9878a9	0.018612223
136	0xbd3983ea	-0.04529182
137	0x3e0f4217	0.13990055
138	0x3d832f6e	0.06405531
139	0x3c819b72	0.015821192
140	0xbe5c2e7f	-0.21502112
141	0x3e52e31b	0.20594446
142	0x3e52dce7	0.2059208
143	0xbd5a8d3d	-0.05335735
144	0xbd477022	-0.048690923
145	0xbd8fc613	-0.070202015
146	0x3cb3785d	0.02190798
147	0x3d8b31a0	0.067965746
148	0xbe6f1c1b	-0.23350565
149	0x3d1ed94e	0.038781457
150	0xbe705979	-0.23471631
151	0x3dde0e70	0.108425975
152	0xbd50f233	-0.05101223
153	0xbde51d36	-0.11187212
154	0x3e1f4554	0.1555379
155	0x3e472ec9	0.19451441
156	0x3e091c00	0.13389587
157	0x3cbd3cde	0.023100313
158	0x3e2efa1d	0.17087598
159	0x3d126409	0.035739932
160	0xbe0a0367	-0.1347786
161	0xbc2d6110	-0.010582224
162	0x3d1e81f6	0.03869816
163	0xbd8ef2e7	-0.06979924
164	0x3decbe9f	0.115597956
165	0xbd8eb6ef	-0.069684856
166	0x3e38670f	0.18008064
167	0xbe3e7324	-0.1859861
168	0x3e0edc1c	0.13951153
169	0xbe4b47c7	-0.198516
170	0x3d643c31	0.055721465
171	0xbd2abcf5	-0.04168411
172	0xbd1cbb36	-0.038264476
173	0xbe6016b8	-0.21883667
174	0xbc67f083	-0.014156464
175	0x3e35ed61	0.17766334
176	0x3dad8131	0.08471907
177	0xbd493493	-0.049122404
178	0x3d484836	0.04889699
179	0xbc0399e8	-0.0080323
180	0x3e3896d0	0.1802628
181	0xbab275b7	-0.0013615404
182	0x3e10e152	0.14148453
183	0xbd38659d	-0.04501878
184	0x3be0ce70	0.006860547
185	0xbd2f9a13	-0.042871546
186	0x3c01c07a	0.007919425
187	0xbe922d46	-0.28550166
188	0xbe2cae57	-0.1686338
189	0x3ec828b6	0.3909356
190	0xbeb89186	-0.36048526
191	0xbc37cd58	-0.011218391
192	0xbd69a4cd	-0.057041932
193	0xbdd42fa0	-0.10360646
194	0xbde4f052	-0.1117865
195	0xbead08ee	-0.33795875
196	0xbdc800b1	-0.09765757
197	0x3eb14dc6	0.3462965
198	0xbe343270	-0.17597365
199	0x3e08eb10	0.13370919
200	0xbeba7aed	-0.3642191
201	0xbe99209b	-0.29907688
202	0xbe4d861d	-0.20070691
203	0xbd98516b	-0.07437404
204	0x3dd473ad	0.10373626
205	0xbf1aff55	-0.60545856
206	0xbd985034	-0.074371725
207	0xbe054a83	-0.13016705
208	0xbe89b6c2	-0.26897246
209	0x3e5ffed2	0.2187455
210	0xbe662eef	-0.22478841
211	0x3ca4865d	0.0200836
212	0xbebf4a48	-0.3736136
213	0xbd35872e	-0.04431837
214	0xbe1a4dfe	-0.15068814
215	0xbec8a26a	-0.39186412
216	0xbe86aea7	-0.26305124
217	0xbec5c213	-0.3862463
218	0xbebcfa31	-0.3690963
219	0xbd8733eb	-0.066016994
220	0x3e954132	0.29151303
221	0x3c9fb2d2	0.019494448
222	0x3e50f01c	0.20404094
223	0xbe03bf18	-0.12865865
224	0xbd9e3ea7	-0.07726794
225	0xbe15649c	-0.1458916
226	0xbe5fc5d3	-0.21852808
227	0xbe7fe9ca	-0.24991527
228	0xbdd40c3b	-0.10353895
229	0xbc7aa032	-0.015296983
230	0x3dcd7f0b	0.10033997
231	0xbdea8e84	-0.11452964
232	0xbeb73edc	-0.35790145
233	0xbe7a8284	-0.2446385
234	0xbe8df248	-0.27723908
235	0xbef3aaf6	-0.4759137
236	0xbe299f37	-0.16564642
237	0x3e9bc5e4	0.30424416
238	0xbe66b732	-0.22530821
239	0xbe8c9c34	-0.27462924
240	0x3db346cc	0.08753738
241	0xbe46dfe2	-0.19421342
242	0xbeb536ae	-0.3539328
243	0xbeb77ee2	-0.3583899
244	0xbd0f18f3	-0.034935903
245	0xbf21b603	-0.6316835
246	0x3e6723bb	0.22572224
247	0x3dc61aca	0.09673078
248	0xbd8d0753	-0.068861626
249	0xbe029f3d	-0.12756057
250	0xbdbccc46	-0.092186496
251	0xbdc5e7eb	-0.096633755
252	0xbe804139	-0.2504976
253	0x3da18cae	0.07888161
254	0x3c1a49e7	0.009417034
255	0xbe92204a	-0.2854026

lstm.bias_hh_l0 f4 [256]
0	0xbdc73f94	-0.097289234
1	0xbe2b77f1	-0.16744973
2	0xbe9f79bd	-0.31147566
3	0xbeb92a27	-0.36164972
4	0xbdfdc3d6	-0.12390868
5	0x3f000cba	0.5001942
6	0xbdc42a5c	-0.09578392
7	0xbe89008f	-0.2675824
8	0xbe8664fd	-0.26248923
9	0xbe7f164d	-0.24910851
10	0xbe89440a	-0.26809722
11	0xbf20d10e	-0.6281899
12	0xbf2466c3	-0.642193
13	0xbec6166e	-0.38688987
14	0xbe3adfe0	-0.18249464
15	0xbe31de48	-0.1736995
16	0xbe940fc7	-0.28918287
17	0xbe716dd8	-0.23577058
18	0xbe82e242	-0.25563246
19	0xbe4c0588	-0.19923985
20	0x3e0c1ae5	0.13682134
21	0xbdd13aac	-0.10216269
22	0xbc880f5b	-0.016608885
23	0xbe69da9d	-0.228373
24	0xbe70b496	-0.23506388
25	0xbee6c7d7	-0.4507434
26	0xbe659324	-0.22419411
27	0x3ec77933	0.38959655
28	0x3ecea47b	0.40359864
29	0xbe923673	-0.28557166
30	0x3e319857	0.1734327
31	0xbec168d9	-0.37775305
32	0xbe0a89cd	-0.1352913
33	0xbc06eca2	-0.008235129
34	0xbe912bf9	-0.2835386
35	0xbbd23518	-0.0064150207
36	0xbdf7008b	-0.120606504
37	0xbd6e838c	-0.05823092
38	0xbe853c1c	-0.26022422
39	0xbe8f2985	-0.27961364
40	0xbe155a5b	-0.14585249
41	0xbdd30cf1	-0.10305203
42	0xbdc62c15	-0.09676377
43	0xbea8528f	-0.32875487
44	0xbe59087c	-0.21194643
45	0x3e7e4cf9	0.2483405
46	0xbe4ddae9	-0.20103039
47	0x3d2a9fdf	0.04165637
48	0x3e5a6d21	0.21330692
49	0xbe08f93c	-0.13376325
50	0xbe9963ea	-0.2995904
51	0xbeb8fd3e	-0.36130708
52	0xbee341a8	-0.4438603
53	0xbf140c5b	-0.5783135
54	0xbf1fc997	-0.62416977
55	0xbe0f8fee	-0.14019749
56	0xbd091b18	-0.033473104
57	0xbe56f33f	-0.20991229
58	0xbd8906c8	-0.066907465
59	0xbd85a0c0	-0.06524801
60	0xbf5050da	-0.8137337
61	0xbe32911b	-0.17438166
62	0xbfbfe2d5	-1.4991099
63	0xbe70636f	-0.23475431
64	0xbdcaca00	-0.0990181
65	0xbe01c98d	-0.12674542
66	0xbdfb82ca	-0.122808054
67	0xbec9daec	-0.39424837
68	0xbe174095	-0.1477073
69	0x3ea38e87	0.31944677
70	0x3d2d9f1a	0.04238806
71	0x3f4453cd	0.7669037
72	0xbe42532a	-0.18977037
73	0xbe9c8024	-0.30566514
74	0x3d869fc6	0.06573443
75	0x3ee5b692	0.44865853
76	0x3e386a51	0.18009306
77	0xbdbf8edb	-0.093534194
78	0xbd865a0e	-0.06560145
79	0x3d3f21d5	0.046663124
80	0xbe7f1999	-0.24912108
81	0x3f1521b8	0.58254576
82	0xbe9b4f2d	-0.30333844
83	0xbe8327fb	-0.2561644
84	0xbe311f4a	-0.17297092
85	0x3b8a1a0e	0.0042145317
86	0xbce42670	-0.02785036
87	0xbd4a28e8	-0.049355417
88	0xbe4a3af7	-0.19749056
89	0xbe201717	-0.15633808
90	0xbe4c458e	-0.19948408
91	0x3e643a23	0.22287802
92	0xbdc2fc7d	-0.095208146
93	0xbe597b3e	-0.2123842
94	0xbe876f12	-0.26451927
95	0x3f05fd74	0.52339864
96	0x3c50a30c	0.012734186
97	0xbd9caa54	-0.07649675
98	0xbe5e3892	-0.21701267
99	0xbe02fbea	-0.1279141
100	0xbd849cf3	-0.06475248
101	0x3eebbdab	0.46043143
102	0x3ee0d1cc	0.43910062
103	0xbdc5906e	-0.096466884
104	0x3e09a000	0.13439941
105	0xbe637800	-0.22213745
106	0x3d0ed2d9	0.03486905
107	0xbdefe359	-0.11713285
108	0xbe03ada8	-0.12859213
109	0x3ea6d67c	0.32585514
110	0xbe3a30f9	-0.18182744
111	0xbdd04167	-0.101687245
112	0x3e33d85b	0.17563002
113	0xbd852fa6	-0.06503229
114	0xbeb7e1f0	-0.35914564
115	0xbe75d9b6	-0.24008831
116	0x3d40d7b7	0.04708072
117	0xbe7fd389	-0.24983038
118	0x3f179b8d	0.59221727
119	0x3e02e2b1	0.12781788
120	0xbbca03da	-0.00616501
121	0xbd81bde0	-0.06335044
122	0xbdce773c	-0.10081336
123	0x3d1f47cc	0.03888683
124	0x3d84f7fd	0.064926125
125	0xbdd9da5e	-0.10637353
126	0x3e424467	0.18971406
127	0xbe8d353e	-0.27579683
128	0xbdcb9c5c	-0.099419326
129	0x3a0521fa	0.000507861
130	0xbddeb05f	-0.10873484
131	0xbda6e920	-0.08149934
132	0xbe7c655e	-0.24648044
133	0xbe41b20a	-0.18915573
134	0xbd877916	-0.06614892
135	0x3c505866	0.012716388
136	0xbe2185b9	-0.15773667
137	0x3d60ab60	0.054850936
138	0x3dc85ee1	0.09783722
139	0x3afc4bca	0.0019248661
140	0xbe8e3d8b	-0.2778133
141	0x3cfae2b7	0.030625684
142	0x3df43342	0.11923839
143	0xbe1cf923	-0.15329413
144	0xbdcc2540	-0.099680424
145	0xbcad8099	-0.021179484
146	0xbe61a49e	-0.22035453
147	0x3e8781b0	0.2646613
148	0xbe45f8fb	-0.1933326
149	0xbcbd5e3a	-0.02311622
150	0xbdce8ca1	-0.100854166
151	0x3cd5f1b3	0.026116228
152	0xbe16a31a	-0.14710656
153	0x3b448fb0	0.002999287
154	0x3db0bb18	0.08629435
155	0x3db52cbd	0.08846424
156	0x3e34299b	0.17593996
157	0x3d742f0c	0.05961518
158	0x3e981c04	0.29708874
159	0xbc80e6f6	-0.01573513
160	0xbd478771	-0.04871315
161	0xbdb4701f	-0.08810448
162	0xbe276f66	-0.16351089
163	0xbe06d455	-0.13166936
164	0x3e3daa5a	0.18522015
165	0xbdc80241	-0.09766055
166	0xbbdcf342	-0.006742866
167	0xbe1aa77c	-0.15102953
168	0xbd84bdf6	-0.06481545
169	0xbe144f77	-0.14483438
170	0x3e268598	0.162619
171	0x3cd3a13a	0.025833715
172	0xbdcb09d6	-0.099139854
173	0xbd3411c8	-0.04396227
174	0xbcd1840e	-0.025575664
175	0x3ead83bc	0.33889568
176	0x3e25213b	0.16125958
177	0xbd3c4b71	-0.045970384
178	0xbde01dd9	-0.10943193
179	0x3e2b9418	0.16755712
180	0x3dff3c3f	0.12462663
181	0x3e43b118	0.19110525
182	0xbd1379e3	-0.036004912
183	0xbe1e5d0a	-0.15465179
184	0xbe260e5a	-0.16216412
185	0x3d1219c2	0.035669096
186	0xbe36053c	-0.17775434
187	0xbe032d9e	-0.1281037
188	0xbd9d9e9a	-0.076962665
189	0x3eb72bfc	0.35775745
190	0xbeb88024	-0.36035264
191	0x3ce1a925	0.027546475
192	0xbb60e2ba	-0.0034314827
193	0xbe315738	-0.17318428
194	0xbe56036a	-0.2089974
195	0xbe81e51f	-0.25370118
196	0xbe6e6aa4	-0.23282868
197	0x3ebc3480	0.36758804
198	0xbe325754	-0.17416126
199	0x3e2a6176	0.16638741
200	0xbecd6c53	-0.40121707
201	0xbe8d35b4	-0.27580035
202	0xbd8ad138	-0.067781866
203	0x3d954d51	0.072901376
204	0x3dbd2757	0.09236019
205	0xbf1c049c	-0.60944533
206	0xbd278583	-0.04089881
207	0xbd3d722e	-0.04625147
208	0xbeaa23c0	-0.332304
209	0x3ebdf286	0.37099093
210	0xbe997814	-0.29974425
211	0x3d14c230	0.036318004
212	0xbeb61cd2	-0.35568863
213	0xbe1a511b	-0.15070002
214	0xbde3db14	-0.1112577
215	0xbeb1914a	-0.3468116
216	0xbe446e29	-0.19182648
217	0xbea07241	-0.3133717
218	0xbe4b750a	-0.19868866
219	0xbddce569	-0.10785944
220	0x3e608245	0.21924694
221	0xbe28e4f7	-0.16493593
222	0x3e5763cc	0.21034163
223	0xbdd42601	-0.10358811
224	0x3c81272f	0.015765755
225	0xbe1f6ef4	-0.15569669
226	0xbe87fa9d	-0.2655839
227	0xbe8b46ad	-0.2720236
228	0xbe1d57eb	-0.1536557
229	0xbdee951a	-0.116495326
230	0x3d74f11b	0.05980025
231	0xbdc521f2	-0.09625615
232	0xbe803c5a	-0.25046045
233	0xbe569f4c	-0.20959204
234	0xbe8eb10c	-0.2786945
235	0xbf03514e	-0.51295936
236	0xbd83e928	-0.064409554
237	0x3e1123e5	0.14173849
238	0xbe0c1a9d	-0.13682027
239	0xbdadb12c	-0.084810585
240	0xbd2fe2d9	-0.04294095
241	0xbe2d6057	-0.16931282
242	0xbeb20e68	-0.34776616
243	0xbee9c026	-0.4565441
244	0xbda53f82	-0.08068754
245	0xbefa25fc	-0.48857105
246	0x3e38925f	0.18024586
247	0xbda56e52	-0.080776826
248	0x3da05013	0.07827773
249	0xbe0f8199	-0.14014281
250	0xbe8e3295	-0.27772966
251	0xbe73a7ce	-0.23794481
252	0xbe0f377d	-0.13986011
253	0x3daa2586	0.08307938
254	0xbd059e78	-0.03262183
255	0xbe9e035f	-0.30861947

lstm.weight_ih_l1 f4 [256, 64]
0	0x3d8602e9	0.06543524
1	0x3d21b625	0.039480347
2	0x3e8a2edc	0.26988876
3	0x3def9cff	0.116998665
4	0xbda23ccf	-0.079217546
5	0xbc86da83	-0.016461616
6	0xbe03cdf5	-0.12871535
7	0xbc9060a7	-0.017624212
8	0xbe81fab5	-0.25386587
9	0x3e18289c	0.14859241
10	0xbd6fe803	-0.058570873
11	0x3e5184c8	0.20460808
12	0xbd5254e5	-0.051350493
13	0x3e102742	0.14077476
14	0x3ea37007	0.31921408
15	0xbc89f448	-0.016840115
16	0xbdc48542	-0.095957294
17	0xbea8be0c	-0.32957494
18	0xbce19f45	-0.027541766
19	0x3ca53081	0.02016473
20	0x3ea8b929	0.32953766
21	0xbdb1f9bc	-0.08690211
22	0x3e081c59	0.13292064
23	0x3e887467	0.26651308
24	0xbe6f7f92	-0.23388508
25	0x3e9f7723	0.31145582
26	0x3e9d9629	0.30778626
27	0xbd7b88be	-0.061409704
28	0x3e92b9c1	0.28657344
29	0xbdfab21f	-0.12241005
30	0xbf06d242	-0.5266458
31	0xbea71f29	-0.3264096
32	0xbe1470f8	-0.14496219
33	0x3eab43a1	0.33450034
34	0xbe185624	-0.1487661
35	0x3e85096d	0.25983754
36	0xbe1ecd6a	-0.15508047
37	0xbe267a5f	-0.16257618
38	0x3de0ce7c	0.10976884
39	0xbde55a24	-0.111988336
40	0x3dad2353	0.08454003
41	0x3ccef4be	0.025263187
42	0xbd96e617	-0.07368105
43	0xbe781353	-0.24226122
44	0xbdec412c	-0.11535868
45	0xbc0b88fa	-0.0085165445
46	0xbc0eee6b	-0.008723835
47	0x3da5f0e4	0.08102587
48	0xbe3b7edc	-0.18310112
49	0x3de0224b	0.10944041
50	0x3d8a0524	0.06739262
51	0x3dab0649	0.08350808
52	0xbdf28b4f	-0.11842977
53	0xbeddb7ba	-0.43304235
54	0x3e3375bf	0.17525385
55	0x3dad5794	0.0846397
56	0xbd7e7883	-0.062126648
57	0xbd0cff57	-0.0344232
58	0xbe930a5b	-0.28718838
59	0x3e621858	0.22079599
60	0x3e28807a	0.1645526
61	0x3f6bfff8	0.9218745
62	0xbd6c0864	-0.05762519
63	0x3e0102a1	0.12598659
64	0x3ebf4f3c	0.3736514
65	0x3e62fcdc	0.2216677
66	0x3d05d08b	0.032669585
67	0xbd290276	-0.041262113
68	0x3eeced13	0.46274623
69	0x3ed2b6f0	0.41155195
70	0xbe89dff9	-0.2692869
71	0x3dacbaf1	0.08434094
72	0x3e13cafa	0.14432898
73	0xbe8472f2	-0.25868946
74	0xbe4ac5c5	-0.19802006
75	0xbe3102cf	-0.17286228
76	0x3f10aeca	0.56516707
77	0xbe89b4ef	-0.26895854
78	0xbee88ca6	-0.45419806
79	0x3ea65f9a	0.32494813
80	0xbd4d1131	-0.050065223
81	0xbd7b9a1a	-0.06142626
82	0x3d8f6cc4	0.07003167
83	0xbe9f680a	-0.31134063
84	0x3eee26dd	0.46514025
85	0xbea30310	-0.31838274
86	0x3f0e0008	0.554688
87	0x3d053429	0.032520447
88	0xbe3a896f	-0.1821649
89	0x3e824772	0.25445133
90	0x3e3e6272	0.18592241
91	0xbf46d83a	-0.77673686
92	0x3e4cf09c	0.2001366
93	0xbef144a8	-0.47122693
94	0xbeb23c75	-0.3481175
95	0xbe8a1b85	-0.2697412
96	0x3e6dc2d3	0.23218851
97	0x3ef19c9d	0.471898
98	0x3ebd1d1c	0.3693627
99	0x3f17eaad	0.5934246
100	0x3d85bd0a	0.06530197
101	0x3e816e8b	0.2527965
102	0xbf161325	-0.5862296
103	0x3e9944ac	0.29935205
104	0x3d69897d	0.057015885
105	0x3ddca885	0.1077433
106	0xbed22627	-0.41044733
107	0x3c8a001c	0.016845755
108	0x3e2a80fc	0.16650766
109	0x3f3f347c	0.7468946
110	0x3baa5b42	0.005198867
111	0xbf0f0214	-0.55862546
112	0xbe7c88c5	-0.24661548
113	0x3ebdccdf	0.37070367
114	0x3ea67e4f	0.3251824
115	0x3deacd5c	0.114649504
116	0xbef881f8	-0.48536658
117	0xbe913214	-0.2835852
118	0x3dbcbf82	0.09216215
119	0x3c4270b8	0.011867695
120	0x3ec994c3	0.3937131
121	0xbe84c3e8	-0.25930715
122	0xbdda6aef	-0.10664927
123	0x3ea8363d	0.3285388
124	0xbe7038e3	-0.234592
125	0xbed5bb16	-0.41744298
126	0x3e217a18	0.15769231
127	0xbd497926	-0.0491878
128	0x3e6bb7f8	0.23019397
129	0xbe0067dd	-0.1253962
130	0xbdb03789	-0.086043425
131	0xbd6fddc6	-0.05856111
132	0x3e715746	0.23568448
133	0x3e857d09	0.26071957
134	0x3d41ae5c	0.047285423
135	0x3e49ac40	0.19694614
136	0xbcb5b623	-0.022181576
137	0x3da67de0	0.081294775
138	0x3c957164	0.018242545
139	0xbecd2ca0	-0.4007311
140	0x3ea33758	0.3187816
141	0x3c468af6	0.012118092
142	0xbe711143	-0.23541741
143	0xbcd7c29c	-0.026337914
144	0x3d250808	0.040290862
145	0xbe6817eb	-0.22665374
146	0x3e3ca8e5	0.18423803
147	0x3c4bc0de	0.01243612
148	0x3c5a3b1e	0.013319759
149	0xbe1271cf	-0.14301227
150	0xbd4243f8	-0.0474281
151	0x3cb64ff5	0.022254923
152	0x3daa0161	0.08301044
153	0x3e183b6f	0.14866422
154	0xbdd7d67a	-0.10538955
155	0x3c29af5d	0.010356751
156	0xbe06c794	-0.1316207
157	0x3af32aab	0.0018552145
158	0xbc56ec0b	-0.0131178005
159	0xbcc5bcbe	-0.02413785
160	0x3d5436fe	0.051810257
161	0x3df7afc0	0.120940685
162	0x3e09c3fa	0.13453665
163	0xbd8d7a87	-0.06908136
164	0x3d828a4d	0.06374035
165	0xbe7707e7	-0.24124108
166	0xbddb3205	-0.107029
167	0x3d6677f7	0.05626675
168	0x3d86235e	0.065497145
169	0xbde345eb	-0.1109732
170	0xbd9dd295	-0.07706181
171	0x3de954df	0.11393141
172	0x3bf91b09	0.0076021
173	0x3e6d1b2d	0.23154898
174	0xbd8da7e8	-0.06916791
175	0xbcef4683	-0.029208427
176	0xbb36cfe0	-0.00278949
177	0xbddc84ca	-0.10767515
178	0xbcd36bd8	-0.02580826
179	0xbc5b6afb	-0.013392205
180	0x3cff51e6	0.031166982
181	0xbcdeae64	-0.027182765
182	0x3f083bac	0.5321605
183	0xbd288b1f	-0.0411483
184	0x3e108146	0.14111814
185	0xbd66a122	-0.056306012
186	0xbd38f7ec	-0.04515831
187	0xbddac158	-0.10681409
188	0xbed2888a	-0.41119796
189	0xbe7bd01f	-0.2459111
190	0xbe433c71	-0.19066025
191	0xba9c7070	-0.0011935364
192	0x3e81edc4	0.25376713
193	0xbc22ad00	-0.009928942
194	0x3d5fefdb	0.054672103
195	0x3d84c7a2	0.064833894
196	0x3da16c26	0.07881956
197	0x3ecd1ea4	0.4006244
198	0xbebd21df	-0.36939904
199	0x3e08e222	0.13367513
200	0xbda445c8	-0.08021122
201	0xbf399553	-0.72493476
202	0xbd5562e7	-0.052096274
203	0xbe9b9ef2	-0.30394703
204	0x3ecf8ffa	0.40539533
205	0xbbf23ed9	-0.007392746
206	0x3d79e6fd	0.061011303
207	0x3d751d43	0.05984236
208	0x3e880e6b	0.265735
209	0xbefc4f30	-0.49279165
210	0x3ea40a5c	0.32039154
211	0xbecf3599	-0.4047058
212	0x3e81af96	0.25329274
213	0x3c5826d3	0.01319285
214	0x3ddf5284	0.109044105
215	0x3f09745f	0.53693193
216	0xbf1978de	-0.59950054
217	0x3f3141c5	0.6924098
218	0x3f0994a3	0.53742427
219	0xbe7314bd	-0.2373838
220	0x3eff7227	0.4989178
221	0x3d96b1c3	0.07358124
222	0xbed48c63	-0.41513357
223	0xbd78ceec	-0.06074421
224	0x3e08a92c	0.13345784
225	0xbddddfc9	-0.10833699
226	0xbe330a29	-0.17484345
227	0xbd1f9eb3	-0.038969707
228	0xbf914dfc	-1.1351924
229	0x3ea10d80	0.31455612
230	0xbef89fcf	-0.48559424
231	0x3cd24174	0.025665976
232	0x3e537a1c	0.2065205
233	0x3ee0a016	0.43872136
234	0xbdd10b5a	-0.10207243
235	0x3e6452cf	0.22297214
236	0x3d0e2894	0.034706667
237	0x3e8b8fcc	0.27258146
238	0xbf1963ee	-0.59918106
239	0xbc90f8e0	-0.017696798
240	0xbe551278	-0.20807827
241	0x3ecfeed9	0.40611914
242	0x3f11516e	0.56764877
243	0x3dba3177	0.09091466
244	0xbe0d4cba	-0.137988
245	0xbed0c24d	-0.4077324
246	0x3f2b18ab	0.66834515
247	0x3f2649ba	0.6495625
248	0x3e647bc4	0.22312838
249	0xbe268c6f	-0.16264509
250	0xbdb0d8a8	-0.08635074
251	0x3ee96fdb	0.4559315
252	0xbeef21b5	-0.46705404
253	0xbe515350	-0.20441937
254	0xbf0fc7d8	-0.5616431
255	0x3e9137db	0.28362927

lstm.weight_hh_l1 f4 [256, 64]
0	0xbeb646e5	-0.35600963
1	0xbe09bfb9	-0.13452043
2	0xbe4acc56	-0.1980451
3	0xbde5683d	-0.112015225
4	0x3d9b7a63	0.07591703
5	0xbeab3ae9	-0.33443382
6	0x3e65fe4f	0.22460292
7	0xbcf76b2b	-0.030202469
8	0xbe09c441	-0.13453771
9	0xbdd8c7b0	-0.10584962
10	0x3e5cbd04	0.21556479
11	0x3e940dca	0.2891677
12	0x3e662ef6	0.22478852
13	0xbe25e957	-0.16202293
14	0xbe20e9d0	-0.15714192
15	0x3e9a3959	0.30121878
16	0xbea9dc96	-0.33176106
17	0xbf090db3	-0.5353653
18	0xbdd1a2b6	-0.10236113
19	0xbe64271f	-0.22280549
20	0x3e40005c	0.18750137
21	0x3c4b6568	0.012414314
22	0x3e9708b9	0.29498842
23	0x3e1a325c	0.15058273
24	0x3d82b982	0.06383039
25	0x3e5e4fbd	0.21710105
26	0xbddace7b	-0.10683914
27	0xbecbaccb	-0.39780268
28	0x3e30915b	0.17242949
29	0x3dce0ad6	0.100606605
30	0xbc942942	-0.01808608
31	0x3d862a43	0.065510295
32	0xbec7bf30	-0.39013052
33	0xbe1510fe	-0.14557263
34	0x3e0f9221	0.14020588
35	0xbe1e3b7d	-0.1545238
36	0x3eb4b073	0.3529087
37	0x3e862f59	0.26207998
38	0xbd3f5c08	-0.046718627
39	0x3ebb9365	0.3663589
40	0xbe2cefd9	-0.1688837
41	0x3e83b3f3	0.25723228
42	0xbef00891	-0.46881536
43	0x3c444f47	0.011981792
44	0x3e459e79	0.19298734
45	0x374d4880	1.2235832e-05
46	0xbd6459ed	-0.055749822
47	0xbd9fea54	-0.078083664
48	0x3e1ce697	0.15322338
49	0x3cb7631f	0.022386132
50	0xbe13e9a4	-0.14444596
51	0x3c7db0ff	0.015484094
52	0xbe7473ec	-0.23872346
53	0xbf1f22bf	-0.62162393
54	0xbcc8d347	-0.024514807
55	0x3e1d6258	0.15369546
56	0x3e87caf0	0.26522017
57	0xbd32cddc	-0.043653354
58	0xbe6ecc78	-0.23320186
59	0xbed0c085	-0.4077188
60	0xbd1e775f	-0.03868806
61	0xbeaf2d0d	-0.3421406
62	0x3dac74de	0.08420728
63	0x3e9d04f8	0.30667853
64	0x3e497d04	0.19676596
65	0x3db9d20b	0.09073266
66	0xbe0da9e7	-0.13834344
67	0xbf6268ec	-0.8844135
68	0xbd142bbf	-0.036174532
69	0xbdf9ac81	-0.12191106
70	0x3dd8ddb4	0.105891615
71	0x3dacffc3	0.0844722
72	0x3dbac229	0.09119064
73	0x3e6e2060	0.23254538
74	0xbe1c0fa6	-0.15240344
75	0xbdb4f198	-0.08835143
76	0xbed1583e	-0.40887636
77	0x3de204b3	0.110360526
78	0xbcd6154b	-0.0261332
79	0xbeed6eea	-0.46373683
80	0x3f0f6ae1	0.5602246
81	0x3e8186d0	0.25298166
82	0x3dc64a58	0.09682149
83	0x3ec07fb3	0.37597427
84	0xbe20baaa	-0.15696207
85	0x3e2035cb	0.1564552
86	0xbd2d0b68	-0.042247206
87	0xbd5c867d	-0.053839196
88	0xbe3d8f4e	-0.18511698
89	0xbe0949e0	-0.13407087
90	0x3ebea7b0	0.3723731
91	0xbdba6b49	-0.09102494
92	0x3e1db13a	0.15399638
93	0xbc27f733	-0.010251808
94	0x3f6c451e	0.92292964
95	0xbe956bf4	-0.29183924
96	0x3bb7a525	0.0056044036
97	0xbc1a2984	-0.009409312
98	0xbc07722c	-0.008266967
99	0x3ecf149e	0.40445417
100	0xbf404898	-0.7511077
101	0xbe75e2b0	-0.24012256
102	0x3e591f01	0.21203233
103	0xbe294049	-0.16528429
104	0x3ca3ab4a	0.019979138
105	0xbd23873c	-0.03992389
106	0x3f068195	0.52541476
107	0xbdfb4b00	-0.122701645
108	0xbf379701	-0.7171479
109	0xbe1e8632	-0.15480879
110	0xbedb5115	-0.42835298
111	0xbe3a067f	-0.1816654
112	0x3d60329a	0.054735757
113	0x3e4a6479	0.1976489
114	0xbdcee07c	-0.10101411
115	0xbe9ceda8	-0.30650067
116	0xbec9965b	-0.39372525
117	0x3e7bf755	0.24606068
118	0xbf05b94a	-0.52235854
119	0xbeaa5fde	-0.33276266
120	0xbe452cf8	-0.19255435
121	0x3e705759	0.2347082
122	0x3e4d1291	0.20026614
123	0xbdf6babd	-0.12047336
124	0x3ec7f226	0.39051932
125	0x3e00b9e0	0.12570906
126	0xbe1386fc	-0.14406961
127	0xbe97d4d3	-0.2965456
128	0xbe6d61b3	-0.231818
129	0x3f0c2454	0.5474293
130	0xbe180589	-0.14845861
131	0x3e092ce8	0.13396037
132	0x3d94fb1a	0.07274456
133	0x3e2cc039	0.16870202
134	0xbd4b5fd6	-0.049651943
135	0xbc6eb63c	-0.014569815
136	0xbe1aa9a8	-0.15103781
137	0x3e554d4a	0.20830265
138	0xbdfdd9c8	-0.12395054
139	0xbe991a93	-0.29903087
140	0xbe279a31	-0.16367413
141	0xbd91ad0a	-0.07113083
142	0xbd0be5b7	-0.03415462
143	0x3e681d63	0.2266746
144	0x3ec778dd	0.389594
145	0xbde4c52c	-0.1117042
146	0xbe8be3fa	-0.2732237
147	0x3bab96fb	0.005236504
148	0xbe84bab7	-0.25923702
149	0xbd65ab55	-0.056071598
150	0xbd394a90	-0.045237124
151	0x3e08a14e	0.13342783
152	0x3ec618a8	0.38690686
153	0xbe2c30b6	-0.16815457
154	0xbe01ce60	-0.12676382
155	0x3da06625	0.078319825
156	0x3c49e3dd	0.012322393
157	0x3e0c6ab3	0.13712578
158	0xbef4a1d0	-0.47779703
159	0xbe334cc2	-0.1750975
160	0xbe7ed2a4	-0.2488504
161	0x3d080dec	0.033216402
162	0xbd2b8b80	-0.041881084
163	0xbea5a26c	-0.3235048
164	0xbe726005	-0.23669441
165	0x3dfbf61e	0.123028025
166	0x3dfe8365	0.12427405
167	0x3eee8e49	0.4659293
168	0xbd223bc6	-0.039607786
169	0xbd8af0d2	-0.06784214
170	0xbe3d6f43	-0.18499474
171	0xbd0452ff	-0.032305714
172	0x3e5e95ad	0.21736784
173	0xbe1820ef	-0.14856313
174	0x3d90add1	0.07064403
175	0xbeb68cd3	-0.35654315
176	0x3dab0732	0.08350982
177	0xbd929032	-0.07156409
178	0xbdcedd06	-0.101007506
179	0xbe3c6958	-0.1839956
180	0xba7ee7f8	-0.0009723897
181	0xbd3d894b	-0.04627351
182	0x3f412cfd	0.7545927
183	0x3dff3f47	0.12463241
184	0x3dc39627	0.09550124
185	0xbe3aeaa4	-0.18253571
186	0x3d8c0670	0.06837165
187	0x3d206179	0.039155457
188	0x3e566f31	0.20940854
189	0xbe3fb673	-0.18721943
190	0x3ca9cd37	0.020727737
191	0xbda44f1e	-0.08022903
192	0xbec23e41	-0.3793812
193	0x3e30c48b	0.17262475
194	0xbf032bc4	-0.51238656
195	0xbf19e99a	-0.6012207
196	0x3e82e074	0.2556187
197	0xbed683a4	-0.4189731
198	0x3c8084c5	0.01568831
199	0x3dcae008	0.09906012
200	0x3d8fbf77	0.07018941
201	0x3e90b1a6	0.28260535
202	0x3e12572b	0.14291064
203	0xbed4e01c	-0.41577232
204	0xbe7ddf71	-0.24792267
205	0xbb3888c3	-0.0028157688
206	0xbcf40a58	-0.029790089
207	0x3e5989eb	0.21244018
208	0x3c2bd496	0.010487696
209	0x3ea0cdcf	0.3140702
210	0x3d49cb24	0.049265996
211	0xbdcc8094	-0.09985462
212	0xbeaef08c	-0.34167898
213	0xbeab54ef	-0.33463237
214	0x3eefd0b0	0.46838903
215	0xbd859327	-0.06522208
216	0xbc8dda50	-0.017316014
217	0x3df31679	0.11869521
218	0x3e73afc8	0.23797524
219	0x3b7edae1	0.0038887786
220	0x3ee1f6b7	0.4413354
221	0x3e04047f	0.1289234
222	0x3d72e1f9	0.059297536
223	0xbe2f3dad	-0.17113371
224	0xbdf7ba7a	-0.120961145
225	0xbec800db	-0.39063153
226	0x3e335137	0.1751145
227	0xbcccf1a8	-0.025017574
228	0xbeda0146	-0.42579097
229	0x3ea840cf	0.32861945
230	0xbd1d002c	-0.038330242
231	0xbda2f9c1	-0.07957793
232	0xbdd95ded	-0.10613618
233	0x3e068eb2	0.13140371
234	0xbd96bdfa	-0.07360454
235	0xbe8e32d9	-0.2777317
236	0x3ddc1f5f	0.10748171
237	0x3e9e3715	0.309014
238	0x3deb0a1b	0.11476537
239	0xbec1b7a9	-0.37835434
240	0xbd35eef6	-0.044417344
241	0x3cd488a2	0.025944058
242	0x3d6a7def	0.057249006
243	0xbe81395f	-0.25239083
244	0xbf5b9560	-0.85774803
245	0xbeb20357	-0.34768173
246	0x3e04828b	0.12940423
247	0x3c90d2a0	0.017678559
248	0x3e93e790	0.28887606
249	0xbe1d9e9e	-0.15392539
250	0xbd997df3	-0.07494726
251	0xbf03d8eb	-0.51502866
252	0x3e2c127b	0.16803925
253	0xbd329998	-0.04360351
254	0xbe2c1639	-0.16805352
255	0x3e924cf6	0.28574342
