scripts/checkpoints/best_model-v2.ckpt (torch, 378464 bytes, 18 tensors)

conv1.weight f4 [8, 1, 3]
000000 1c fc 6a be 90 8d ab 3e 2c 50 83 3e dd 8a 89 be
       -0.22947735 0.3350644 0.25647104 -0.26863757
000010 04 c8 90 be 5e cd 21 3e 90 38 93 be 4e 4f 2c 3d
       -0.282776 0.15800998 -0.2875409 0.04206782
000020 0d 93 0d be 73 b1 98 be 7a 6f e0 3e 4f 57 03 bf
       -0.13825627 -0.29822883 0.4383505 -0.513051
000030 65 8d 75 3e f9 ca 44 3d 92 1f 09 3e 02 95 2d 3e
       0.23979719 0.048045132 0.1339095 0.16951373
000040 91 38 86 3e 6f 34 9d bd a2 26 95 be 5e 56 ed 3e
       0.26215032 -0.076760165 -0.29131037 0.46354955
000050 bb 95 e1 be 7d 36 41 3d 3d 83 4a 3e 1f b7 14 bf
       -0.44059548 0.047171105 0.19776626 -0.5809192

conv1.bias f4 [8]
000000 71 46 9f be 22 1d c2 3e 4b 06 79 be 77 78 18 3e
       -0.3110843 0.37912852 -0.24318807 0.14889704
000010 f6 69 32 bf a1 c7 70 bf 8b 3e 55 bf cf 6b 73 be
       -0.69692934 -0.9405461 -0.8329856 -0.23771594

conv2.weight f4 [32, 8, 4]
000000 0c 2b 88 be 6e 56 19 be 7d 55 cf bc f4 83 21 be
       -0.26595342 -0.14974377 -0.025309319 -0.15772992
000010 7e 7a 2b 3d 64 27 8a be 84 0d 54 be cf b0 f9 bd
       0.041864865 -0.26983178 -0.20708281 -0.12191927
000020 2a b4 8c bc d2 86 52 3d 81 34 be 3d 2d 76 05 be
       -0.017175753 0.051398106 0.09287358 -0.13033362
000030 ca 53 c9 be 5d 0f 23 be 47 58 76 be 6f 11 7f be
       -0.39321738 -0.1592383 -0.24057113 -0.24908994
000040 9b 4a eb bd f1 b3 7c be 0d 37 d4 be 6b 3b 47 be
       -0.11488839 -0.24678017 -0.4144825 -0.1945626
000050 bd 60 1a be 4a 93 2a bf 46 e1 f1 be 02 06 fc be
       -0.15075965 -0.66630995 -0.47242182 -0.49223334
000060 e6 54 bd bd 36 0c 2c bd d0 13 17 3d b0 91 91 be
       -0.09244709 -0.042003833 0.03688413 -0.28431463
000070 06 c3 c0 bd 9b ab 2f be 11 be ed bd 9d 53 18 bd
       -0.09412198 -0.17155306 -0.11608518 -0.037189115
000080 47 ca 29 be 65 88 89 be 0a 1b 8e be af 2c 84 be
       -0.16581069 -0.26861873 -0.27755004 -0.2581534
000090 63 ca 64 3e 55 d4 b0 3c e4 05 0f be 50 36 04 be
       0.2234283 0.021585623 -0.13967091 -0.12911344
0000a0 8c 66 97 3e bc 97 e8 bd 9a 63 3d 3c 44 2f 45 3e
       0.29570425 -0.11357066 0.011559391 0.19256312
0000b0 f0 b6 45 3f cd 98 9e bd 4e df 9d be 70 53 86 3d
       0.77232265 -0.07743988 -0.3083443 0.06558883
0000c0 fc dc 10 bf fd be 2f bf 22 37 a8 3a 49 c1 00 be
       -0.56587195 -0.686508 0.0012833814 -0.12573732
0000d0 52 14 81 bf 4e 6b c1 be 3e 75 a7 be 9f 5b 8b bd
       -1.0084326 -0.3777718 -0.32706636 -0.06804585
0000e0 65 72 cb 3e 55 0c 9e 3e 44 22 20 be 4e e7 83 3e
       0.39735714 0.30868784 -0.15638071 0.2576241
0000f0 ac 95 69 3e 58 f6 9b be 07 15 f0 3e e7 c0 14 3e
       0.22811002 -0.30461383 0.46891043 0.14526711
000100 0b 9b 95 bd d4 ec 44 bd d2 01 c4 bd 59 41 4d 3d
       -0.07304963 -0.04807742 -0.0957066 0.05011115
000110 49 61 13 be c8 2c 07 be a7 d4 7c 3c c8 e6 c7 b9
       -0.1439258 -0.13200676 0.01543156 -0.00038128183
000120 10 8f 62 bf fa 09 ba bf 6f 37 33 be 08 42 87 bf
       -0.88499546 -1.4534295 -0.17501615 -1.0567026
000130 6f 0a 1d bf 29 0b d4 be 7b 74 05 bf 62 b3 23 bf
       -0.61344045 -0.41414765 -0.5213086 -0.6394559
000140 cd 58 37 bd c7 73 1a be 92 fe 66 be 0b 5d cc bd
       -0.04476242 -0.15083228 -0.22558048 -0.09978684
000150 23 0e d0 bd 6b 4d 9c be e8 18 55 be 82 61 8c be
       -0.10158946 -0.30527815 -0.20810282 -0.27418143
000160 ce 3c 26 bf f6 47 1d bf 66 47 33 bf 5f 40 1f bf
       -0.6493653 -0.6143793 -0.7003082 -0.622076
000170 de a3 1c bf d4 85 63 bf a8 cc 73 bf 29 a6 f4 be
       -0.6118754 -0.8887608 -0.95234156 -0.4778302
000180 30 56 cb bd 81 ff 4b be 7d c3 f1 bd 53 d7 58 bd
       -0.09928548 -0.19921686 -0.118048646 -0.052939724
000190 37 8a 98 bd 39 da 5a 3d 36 87 0b be 1e db ca bd
       -0.074482374 0.05343077 -0.13625798 -0.099050745
0001a0 e0 5a 1d bd 52 d3 81 be 5f f9 16 3b e6 70 0c be
       -0.038416743 -0.25356537 0.002303682 -0.13714942
0001b0 75 3c bf bd aa b7 03 be f0 0b ad bd 32 56 3d be
       -0.09337703 -0.12863031 -0.084495425 -0.18489912
0001c0 17 38 24 be 9f 5f 51 be b1 fb 2a be f6 6b 5b be
       -0.16037022 -0.20446633 -0.16697575 -0.21427903
0001d0 45 1c 39 bc 53 a8 4a be de 0d 98 bd 64 5e ec bd
       -0.011298244 -0.19790773 -0.0742452 -0.11541441
0001e0 ed 2b 80 be 6d 35 2a be 82 a0 e8 bd 26 3b 62 be
       -0.25033513 -0.16621943 -0.113587394 -0.22092876
0001f0 2f 7a a4 bc 9a 60 90 bd 7f 9b 9d bd 5c db 2b 3d
       -0.020077793 -0.07049675 -0.07695674 0.041957244
000200 85 c7 5a 3e ba 69 7e bc ab a7 d2 3d b9 3f a7 be
       0.21365173 -0.015528137 0.102858864 -0.32665804
000210 1e 72 6e be 8b 76 a6 bc 6a a2 2a 3e 31 05 7a be
       -0.2328572 -0.020320198 0.16663519 -0.24416043
000220 39 06 01 bd 46 91 1d 3e 83 dd 27 be ef b4 de be
       -0.031500075 0.15387449 -0.16393094 -0.43497416
000230 a2 87 97 be e2 cd d9 be 33 a8 7a bf be 6c 2e bf
       -0.29595667 -0.4253989 -0.979129 -0.6813468
000240 9a d7 93 be 09 62 01 bf 7c 53 45 bd e4 86 fa 3e
       -0.28875428 -0.50540215 -0.04817532 0.48931038
000250 c9 d0 e2 3e e9 da 42 3f 54 12 80 bf 79 09 d8 3d
       0.44299915 0.7611528 -1.0005593 0.10548682
000260 d0 a6 95 bc e9 41 e7 bd 6f f7 86 be 47 03 dd be
       -0.018268019 -0.11291868 -0.26360652 -0.43166563
000270 20 75 08 bf aa 85 9e be e9 f4 24 bf 3f 6c c2 be
       -0.5330372 -0.30961353 -0.64436203 -0.3797321
000280 8a 18 f6 bb 47 72 0e 3c ed c8 81 3e 11 0d c3 3e
       -0.0075102495 0.008694238 0.25348607 0.38095906
000290 ff 6e 3d be a1 93 03 bf a5 d6 20 bf 35 00 70 bf
       -0.18499373 -0.5139714 -0.6282752 -0.93750316
0002a0 42 b8 87 bf b1 3d e5 be 9c 7a 13 bf ec 7d 84 bf
       -1.0603106 -0.4477363 -0.5760896 -1.0350928
0002b0 3a 1c c2 be 35 9d aa be e5 cc 20 bf 34 7c 81 bf
       -0.3791216 -0.33323064 -0.62812644 -1.0116029
0002c0 dd 96 f4 3b 14 ee 01 3e 3e d4 c0 3d 41 77 a9 bd
       0.0074642734 0.12688476 0.09415482 -0.08274699
0002d0 70 2d c0 3e ea 9e 80 3e 1d a9 6d 3e af 83 74 bd
       0.37534666 0.25121242 0.23209043 -0.059695896
0002e0 01 ea 07 bf ea 19 1a bf de c0 04 be 92 28 18 bf
       -0.53091437 -0.6019579 -0.12964198 -0.59436905
0002f0 12 5e 22 3f 68 5d 1a be ba cd 50 bf 92 72 8c bf
       0.6342479 -0.15074694 -0.81563914 -1.0972464
000300 df 93 08 bd 46 be 7c 3c 64 d8 13 3e a9 04 ae 3c
       -0.033344146 0.015426224 0.14438015 0.021242457
000310 9d 57 16 bc 7d a9 52 be 80 28 b6 be c9 ee 50 bf
       -0.009176162 -0.20572467 -0.35577774 -0.8161436
000320 ff ac 26 3d 11 c2 bf be 50 c4 e0 bd b8 2f cd be
       0.040692326 -0.37452748 -0.10974944 -0.4007547
000330 45 a6 34 bf 2e b7 10 bf f2 15 3c bf d9 1a c5 be
       -0.7056621 -0.5652951 -0.73470986 -0.38497046
000340 c9 c8 6e be 95 c7 05 bf bb ca 88 be b6 a4 03 be
       -0.23318781 -0.52257663 -0.2671717 -0.12855801
000350 35 48 dd be 3b 30 3c bf 72 0d fc be 4c 93 93 3d
       -0.43219152 -0.73511094 -0.49229008 0.07205829
000360 73 5c c3 3e 61 4a b5 be d2 e6 38 be 75 ad 7c bd
       0.3815647 -0.3540831 -0.18056801 -0.06168886
000370 10 16 9c be 76 8c 72 be 5f 4b b7 be 23 e3 20 bf
       -0.30485582 -0.23686394 -0.3579969 -0.62846583
000380 08 ee 89 bd 90 e5 05 be 0a 33 f5 bd 48 c5 5e 3b
       -0.06734854 -0.13075852 -0.119726256 0.00339921
000390 82 c1 e4 bd a4 50 62 be bd af 84 bc 74 b0 5a be
       -0.11169721 -0.22101074 -0.01619708 -0.21356374
0003a0 0f 9e 58 be 87 fd f8 bd 9b 4e 31 be ec 4d 0d bc
       -0.21154045 -0.121577315 -0.17315142 -0.008624535
0003b0 1b 62 37 be c2 96 82 be 23 1e e8 bd 89 56 93 bd
       -0.17908518 -0.25505644 -0.11333873 -0.0719424
0003c0 28 0c ee bd 42 18 6c be 47 2d 1c be 1e cf 35 be
       -0.11623412 -0.23056129 -0.15251647 -0.1775479
0003d0 1d 64 04 be 2f 1d 6f be 82 de 00 bd 59 13 5d be
       -0.12928815 -0.23350976 -0.0314622 -0.21589412
0003e0 c5 87 13 3d 65 98 5d bd 5f 61 89 bc 6d 01 9c 3d
       0.03601815 -0.054100413 -0.016770063 0.076174594
0003f0 3f a2 28 be 99 4f 7a be 37 e6 35 be 85 13 12 be
       -0.16468142 -0.24444427 -0.17763601 -0.14265259

conv2.bias f4 [32]
000000 56 33 0b be c3 cd db be be e8 43 3f 55 66 4b be
       -0.13593802 -0.4293042 0.7652701 -0.19863255
000010 93 ab 3b be 53 9b 01 bf 4a 2d 0d 3f f0 06 9a be
       -0.18327169 -0.5062763 0.5514723 -0.30083418
000020 4a 63 5c 3e a1 96 d1 3e c2 49 52 bf 33 5f b0 be
       0.21522251 0.40935233 -0.82143795 -0.3444763
000030 e5 ef 2d bf c6 e2 82 bd 9e ee d5 bc a0 1a 7e be
       -0.67944175 -0.0639091 -0.026114758 -0.24814844
000040 56 92 fc 3d 0e 9e 8a bd ca 40 f4 be 17 7e 6a be
       0.12332599 -0.06768428 -0.4770568 -0.22899662
000050 f5 ac 35 3c 58 36 35 be f0 b9 7a bf 2e 28 80 be
       0.011088599 -0.17696512 -0.9793997 -0.25030655
000060 dc 48 b6 be 00 7b 26 3e 7b f9 56 be 93 a2 23 be
       -0.35602462 0.16257858 -0.20993607 -0.15979986
000070 e4 4c a0 be aa c3 4d 3e 28 b5 77 be 9c 37 1f be
       -0.31308663 0.20094171 -0.241902 -0.15548557

lstm.weight_ih_l0 f4 [256, 32]
000000 b4 91 10 bd bc 7a db 3e da 75 17 bc e5 64 a0 3d
       -0.035295203 0.42867076 -0.009244407 0.07831744
000010 52 8c 3c 3f 96 ee ea 3e 36 23 94 bf 2c a8 88 bd
       0.7365161 0.45885152 -1.1573246 -0.06672701
000020 2a b4 e5 3d 07 dd 2c 3e 38 ef 35 bf ca 1e fc bd
       0.11216004 0.1688119 -0.71068144 -0.1231056
000030 cc 37 ca 3c 24 4d 00 bf 81 8a 2a 3e fa ea 7e bc
       0.02468481 -0.5011771 0.16654398 -0.015558952
000040 d7 d2 3f bd 5c ae 78 3e 10 7b cf be 88 e8 4b 3e
       -0.046831932 0.24285263 -0.40523577 0.19912922
000050 3e 47 38 3e e9 75 70 bd b7 dd bc 3e 99 12 0d 3f
       0.17995927 -0.058706198 0.36887905 0.551065
000060 43 4a 08 3f 4d ce db 3e cd 9e 82 3d a0 39 2f bf
       0.53238314 0.42930833 0.06377945 -0.68447304
000070 a0 1a 0b 3d 99 cf c0 3d 2b 8e d8 bb 15 2d 81 bf
       0.03396094 0.09414596 -0.0066087446 -1.0091883
000080 8f ec 29 be 48 2c 92 be 3d 79 42 3e 23 3b 32 39
       -0.16594146 -0.2854941 0.18991561 0.00016997433
000090 c2 36 75 bf 68 53 54 bd ed f7 c9 be 1f 27 26 3e
       -0.9578668 -0.051837355 -0.39446965 0.16225861
0000a0 b7 11 21 3e 22 18 4b 3e 8f 91 6f bd 5c a2 59 be
       0.15729414 0.19833425 -0.058488425 -0.21253341
0000b0 df f8 cc 3e f0 92 20 bd cd 04 bd 3d a9 8f d1 3d
       0.40033624 -0.03920263 0.09229431 0.10232479
0000c0 50 74 2d 3f b6 d0 4f 3e 2d df 91 bd aa db 53 bd
       0.67755604 0.2029446 -0.071226455 -0.05172316
0000d0 ff ca 0b 3e 4f 6e 05 bd 27 22 aa 3d 06 87 ba bd
       0.13651656 -0.0325759 0.08307295 -0.09107785
0000e0 58 ae 8a be f9 f5 0b bd c8 57 1e 3e 63 21 d9 3c
       -0.2708614 -0.034170125 0.15463173 0.026505178
0000f0 e7 a5 ab be 81 74 d3 be 66 a5 35 be bb 25 59 bd
       -0.3352501 -0.41299823 -0.17738876 -0.0530145
000100 7c 71 11 3e 4e 92 46 3f 6d 6f 5e bf 5b 9c 7f 3e
       0.14203447 0.77566993 -0.8688877 0.24961989
000110 40 2b 4e bf 8a 5f 7b bf de 0f aa bf 35 2a 9e be
       -0.80534744 -0.98192656 -1.3286092 -0.30891576
000120 48 1a 84 bf c8 ba 81 bf de 98 d2 3e 66 da 67 3f
       -1.032052 -1.0135126 0.41132253 0.90567625
000130 4e d5 f4 be 63 fc d1 bd 16 cb 89 bf 33 ad 9d bd
       -0.4781899 -0.10253217 -1.0765102 -0.07699051
000140 08 82 ac bf de 14 5e bf c3 b4 a7 3f 6f 24 eb 3e
       -1.3477182 -0.8675059 1.3102039 0.45926234
000150 28 05 f2 3d 0c 48 7b be 2e 6c 56 bf 86 f1 d7 3e
       0.1181739 -0.24539202 -0.8375882 0.42176455
000160 2c a6 18 3f ec 2a 10 be 9f 23 2a be d5 23 ef 3e
       0.5962856 -0.14078873 -0.16615151 0.46707025
000170 e9 3a 88 3d 4c 49 d5 bf f6 22 8b bb 94 d0 5b 3e
       0.06651861 -1.6662993 -0.004246111 0.21466285
000180 30 8b d5 3d 9f f5 38 bf 34 ad bc be 07 af c3 bb
       0.104269385 -0.7224979 -0.36850893 -0.0059717926
000190 56 9f 12 3f 7a ee 58 3e c7 7d d1 bd 73 05 49 3e
       0.5727438 0.21184722 -0.10229068 0.19630985
0001a0 9f 73 ec 3e 48 58 42 3f cd a9 01 be c2 3a 4b be
       0.46181962 0.75915956 -0.1266243 -0.19846633
0001b0 d0 a7 44 3e 98 ee a9 be 5a d9 41 3f ac 55 0f 3e
       0.1920464 -0.33189845 0.7572228 0.13997525
0001c0 fa b2 8a 3e 3a 7b 0c 3f b7 5e cd be e6 9f 28 be
       0.27089673 0.5487553 -0.40111324 -0.16467246
0001d0 7e 40 00 3f 75 e3 1d 3e 5d 66 30 3f 89 6f f3 3d
       0.5009841 0.15418799 0.68906194 0.11886508
0001e0 f7 91 77 3d 71 c5 28 3e cd a1 c4 3d 50 bc 1a 3f
       0.060441937 0.16481568 0.096011735 0.6044359
0001f0 b3 76 06 3e 6d 71 11 3e f1 4e 26 3e b2 ea 6a 3e
       0.13131218 0.14203425 0.16241051 0.22941092
000200 62 2d f6 bd c6 ec 93 be 1c c9 03 be 31 1d 91 be
       -0.12020375 -0.2889158 -0.12869686 -0.28342584
000210 74 2a 13 be dc 35 de be a4 a4 ba be 74 61 0d be
       -0.14371663 -0.43400466 -0.36453736 -0.13806707
000220 82 ec 6e be 45 8c a2 bd 9a 0d 64 bd 5a f7 34 be
       -0.23332408 -0.079369105 -0.055677034 -0.17672482
000230 d8 2a 5e be 19 6b ad be 5e f4 59 be ab ae 08 be
       -0.21696031 -0.33870772 -0.21284625 -0.1334788
000240 dd 9e a1 be 04 bb f2 be f2 23 73 be 67 6f b3 be
       -0.31566516 -0.47408307 -0.23744181 -0.3504593
000250 59 e5 a1 3c ad c8 1a be c6 ae 8c be 36 90 b8 3b
       0.019762682 -0.15115614 -0.27477092 0.0056324257
000260 ab ab 9c be 5b 19 5e be 4a 8c 97 3c 70 ab 9b be
       -0.30599722 -0.2168936 0.018499512 -0.30404234
000270 c0 34 77 be ff e2 88 be 33 54 6d ba 9e 69 cd be
       -0.24141216 -0.26735684 -0.0009053379 -0.40119642
000280 e6 31 c3 3d 8b 80 1c 3f aa 65 f9 3e 80 1b 28 be
       0.09531002 0.6113364 0.48710376 -0.1641674
000290 49 58 b2 3e 97 04 95 bb 1b fc af 3d cd 6c d3 3d
       0.3483298 -0.0045476663 0.08593007 0.103234865
0002a0 70 57 54 3e c5 b6 f0 bc 21 e6 e3 3d 71 20 d2 3e
       0.2073648 -0.029384026 0.11127878 0.41040376
0002b0 b0 d7 f2 be da 9d 8c bc 2a 4d 11 be 6b 62 d6 be
       -0.47430182 -0.017165113 -0.14189592 -0.41871962
0002c0 7c e9 2a 3e 63 c3 9d 3e 09 bc 13 3f 1d 63 07 3e
       0.1669063 0.3081313 0.57708794 0.13221402
0002d0 40 69 96 3d b6 a9 9f be ec a3 a5 3d ca 82 ab bc
       0.073442936 -0.31184167 0.08087906 -0.020936389
0002e0 85 16 4a 3f b7 60 bd be 40 c3 61 be 53 26 fe 3e
       0.7894061 -0.3698785 -0.22047138 0.49638614
0002f0 9d 9f 36 bf fd 9e a2 be ef dd 21 bc 1f d1 05 3f
       -0.713373 -0.31761923 -0.009879573 0.5227222
000300 95 9e 61 3e 9b 0e e4 bc cd a3 3a be 8b 41 c9 3d
       0.2203315 -0.027838996 -0.18226548 0.098269545
000310 85 35 b3 3d 5c 08 1e 3e 27 bb a0 be 37 d9 2d be
       0.087504424 0.15432876 -0.31392786 -0.16977392
000320 77 a3 63 3e 56 4c 00 3f 42 46 9c be 1d c0 1e 3f
       0.22230326 0.5011648 -0.30522352 0.6201189
000330 5e 42 ea 3d 8b 77 10 be 92 01 53 3e 71 cb 43 be
       0.1143844 -0.14108102 0.20606068 -0.19120575
000340 cb 88 b2 3e 2f 67 97 3e ed 1c ce 3e 81 62 c0 3e
       0.3486999 0.2957091 0.40256444 0.37575153
000350 e9 1c d0 be 5a c8 48 bd c9 d9 41 3e 30 05 bd bb
       -0.40647057 -0.049019195 0.18930735 -0.0057684407
000360 41 aa 98 3d 2f 89 33 bf 86 12 f8 bc 3e b6 ad 3c
       0.07454348 -0.701312 -0.03028227 0.021205064
000370 33 1d f1 be 58 ae 57 3e 37 5a 67 bc 30 db f8 3e
       -0.4709259 0.210626 -0.01412063 0.48604727
000380 5e 6a d2 3b 0a cb 77 3e 4d 65 b8 3e a5 db 68 bd
       0.0064213714 0.24198547 0.36014786 -0.056850094
000390 14 ad 46 be 20 a5 1e 3e 20 77 02 3d 2c 11 ea 3d
       -0.19401962 0.15492678 0.031851888 0.114290565
0003a0 52 95 52 3e b9 52 e1 3d 0e 03 28 3e 5a b9 66 3e
       0.20564774 0.11002106 0.16407415 0.22531644
0003b0 5d 33 3b 3e 52 b7 25 3e 51 2f 49 3e 79 cc 3a 3e
       0.18281312 0.16183212 0.19646956 0.18242063
0003c0 b5 1a 6a 3e cd 67 8f 3e 3b e8 42 3f a8 d8 af 3e
       0.2286175 0.2800888 0.76135606 0.34344983
0003d0 6e ce 73 3d c0 16 a1 3d 06 31 c0 3e 9a a2 69 3e
       0.05952304 0.07865667 0.37537402 0.22815934
0003e0 97 29 50 3d d5 7a 1a be 3b 60 c2 bd 9d 65 c4 3e
       0.050820913 -0.15085919 -0.09491011 0.38358775
0003f0 42 8a 31 be 5c b9 29 3e 1a 1c 48 3d 0f 60 b8 3e
       -0.17337897 0.16574615 0.048854925 0.36010787

lstm.weight_hh_l0 f4 [256, 64]
000000 67 b4 44 3f 32 06 93 3c 83 31 f7 3f da ec fc be
       0.7683777 0.01794729 1.9311985 -0.49399453
000010 cb e8 02 3f fd 75 0e 40 1f ae 80 bf d6 19 30 bf
       0.51136464 2.2259514 -1.0053138 -0.6878942
000020 a7 08 97 3e 12 54 d7 3e cc 22 1b 3f 5e 26 eb 3f
       0.2949879 0.42056328 0.6059997 1.8371084
000030 e3 f2 08 3f a9 35 a1 bf c8 92 3d bf 42 a6 0d 3f
       0.53495616 -1.2594501 -0.74052095 0.55331814
000040 4c 6c 2f 3f d0 35 0c 3f 19 13 c0 bf 95 e5 9e 3f
       0.6852462 0.5476961 -1.5005828 1.2413813
000050 53 a5 db 3e 62 b9 25 3f e4 db 6d bf b7 dd d3 be
       0.4289957 0.64735997 -0.9291365 -0.41380093
000060 82 eb 55 be 3a 1a c9 3f d1 5b 50 bf d3 49 35 3f
       -0.2089062 1.5711129 -0.813901 0.7081577
000070 c2 04 54 3f 6c 9e 03 bf c9 f1 96 be 86 85 6d 3e
       0.8281976 -0.5141361 -0.29481342 0.23195466
000080 e9 ca ac 3e 90 2f c2 bd f6 f8 3d 3f e4 5a 52 3f
       0.33748558 -0.09481728 0.7420801 0.8216994
000090 61 d0 83 3f 85 a5 64 3e f0 a6 ae be 26 cf 34 3f
       1.0297967 0.22328766 -0.34111738 0.70628583
0000a0 33 08 24 bf b8 9c e6 bf 99 bc ac bf d0 94 6d 3f
       -0.6407501 -1.8016577 -1.3495055 0.92805195
0000b0 bc 88 89 3e 01 90 67 bf 3c c9 1d 3f 89 c1 ab 3f
       0.26862133 -0.9045411 0.61635184 1.3418437
0000c0 28 b9 9b 3d 91 b1 b7 bf 95 c6 d7 be ce bc 33 3e
       0.07603675 -1.4351064 -0.42143694 0.17552492
0000d0 6f b6 0f 3e af ac d5 be 43 7c 98 bf 49 f6 90 be
       0.14034437 -0.4173331 -1.1912922 -0.283129
0000e0 2d be 0e bf 60 61 66 bf 7f d0 58 3f 9e 73 90 be
       -0.55758935 -0.8999233 0.8469314 -0.2821321
0000f0 ad 9f 99 3f 8b aa d5 3e 2b f3 6a bf b0 de 5f be
       1.2001854 0.41731676 -0.91777295 -0.21862292
000100 11 86 db be 52 93 60 be 77 17 6a 3f 03 36 98 be
       -0.42875722 -0.21931198 0.91442055 -0.29728708
000110 97 09 d6 3d 87 a8 c6 3e 2a 77 a1 3e 95 24 bd bd
       0.10451048 0.3880045 0.31536227 -0.09235493
000120 a8 2b 7a be 70 41 54 3e 99 17 a6 3e 25 99 8a 3f
       -0.24430716 0.20728087 0.3243988 1.0827986
000130 90 89 71 bd 65 c4 f9 be fb 12 c5 be a8 22 4c 3e
       -0.05896908 -0.4878265 -0.38491043 0.19935095
000140 41 c2 20 3d d9 53 0b 3d 1c 6d dd be 35 f0 d7 3e
       0.039247755 0.03401551 -0.43247306 0.4217545
000150 61 ba e8 bc 2b ed 0c 3f 10 aa 2b bc 01 fe b5 bd
       -0.028409185 0.5504939 -0.010477558 -0.08886338
000160 d0 c5 b5 bd e9 cf 0b 3f 35 e7 9b 3d 87 80 8f 3e
       -0.0887562 0.5461412 0.076124586 0.28027746
000170 52 a4 d4 3e e3 d2 4a bd 64 94 ca bb 61 89 16 bd
       0.41531616 -0.049517523 -0.0061822403 -0.03675211
000180 76 d2 12 bc 7f b1 33 3d bd 33 10 3e ff 3e 8a 3e
       -0.008961311 0.043870445 0.14082237 0.27001187
000190 80 3b 8d be cd fa 97 be f1 ca 80 be db cb 5a 3e
       -0.27584457 -0.29683533 -0.25154832 0.21366827
0001a0 85 d3 1a bb 04 04 43 bf 9c 3c 8d be cc 22 30 3e
       -0.002362461 -0.76178 -0.27585304 0.17200774
0001b0 34 68 b0 3e 0c b7 a6 be 0b f4 82 3e 80 c9 c2 3d
       0.344545 -0.3256153 0.25576815 0.09511089
0001c0 36 aa c7 bd bd 0d 6a be ff 86 9f 3d 4b 54 a1 be
       -0.09749262 -0.22856803 0.0778942 -0.31509623
0001d0 2f 98 a5 bd 44 51 a6 be 81 25 98 bf 9b 86 c5 be
       -0.08085667 -0.32483876 -1.1886445 -0.38579258
0001e0 b9 c5 02 3e 20 31 da be 01 21 44 3e 44 47 48 3c
       0.12770738 -0.42615604 0.19153215 0.012224022
0001f0 7f 0e 9d 3e 31 30 30 3e d7 b0 9c be 5e bf f6 ba
       0.30675122 0.17205884 -0.30603668 -0.0018825342
000200 96 00 3a 3f 8c 5f e8 3d 8b bb 30 be 10 2b 49 3d
       0.72657144 0.11346349 -0.17259042 0.049113333
000210 e7 d1 6e bd 56 2c c5 be 90 0c b4 be 7b 6d 94 3d
       -0.058305647 -0.38510388 -0.35165834 0.07247444
000220 68 0d 9d 3c 9d 6c c4 3d 4c 75 6f be f7 19 42 bf
       0.019171432 0.09591029 -0.23384589 -0.7582087
000230 1b e7 ba 3d 5e c3 5c be 0d 85 15 3e 12 74 b0 3d
       0.09126111 -0.21558902 0.14601536 0.08615889
000240 a6 70 1a 3f f0 b2 e9 3e 29 3c 05 be cc ba ab be
       0.6032814 0.4564433 -0.1301123 -0.33540952
000250 cb 6a 0a 3f 01 bc 9f be cd dd fe bd 33 43 98 be
       0.54069203 -0.31198123 -0.12444649 -0.2973877
000260 6b 07 e2 be d5 c9 1f bf fd 7a 0b 3e 6b a2 57 bd
       -0.44146284 -0.62417346 0.13621135 -0.05264513
000270 f2 27 f0 3c 91 ee 37 bd fe fb b0 be 24 e9 81 3e
       0.029315922 -0.04490525 -0.34567255 0.25373185
000280 b4 02 57 be 99 8e ac 3a 91 1b 0a 3e af 29 fa 3d
       -0.20997125 0.0013165056 0.13487078 0.12214982
000290 e1 9a d0 3e 13 e6 ee 3e 53 5a 2b be 59 a5 12 be
       0.40743163 0.46659908 -0.16733675 -0.14320888
0002a0 0e cc 04 bf df 8c 9b 3d 43 ad 06 bf 3c f4 b9 be
       -0.5187386 0.075952284 -0.52608126 -0.3631915
0002b0 c8 1a 88 bd 11 0d 07 3e 55 8c 89 bd 3b 7d 02 3f
       -0.06645733 0.13188578 -0.06716219 0.50972337
0002c0 80 74 a7 be 50 8e ee be 16 19 86 be 7e cf 0a 3f
       -0.3270607 -0.4659295 -0.26191014 0.5422286
0002d0 18 b5 72 3d 43 93 7e bc 18 3d a5 be 1b 00 e5 3c
       0.059254736 -0.01553804 -0.32273173 0.027954152
0002e0 2d b4 c2 3d 6a 68 28 be 06 3d c2 bd 88 3a 86 be
       0.09507022 -0.16446081 -0.094842955 -0.2621653
0002f0 ca 83 0a bf b7 25 ac be 68 61 8e be 42 a6 17 3f
       -0.54107344 -0.33622524 -0.2780869 0.59238064
000300 b6 58 b1 3e 00 39 5c 3f 19 69 b6 3e e0 0e 31 bf
       0.34637994 0.86024475 0.35627058 -0.6916332
000310 d1 50 64 be 1a 98 46 3f 45 47 ad bf a9 70 04 bf
       -0.22296454 0.7757584 -1.3537375 -0.51734406
000320 c6 a2 58 3e ee 5d 18 3d a7 65 e6 be bb 5b 0e bf
       0.21155843 0.037198953 -0.4499943 -0.5560872
000330 ba 8e e4 3e 53 c3 f8 be b9 5f 1d 3e 37 1f 72 3f
       0.44640142 -0.4858652 0.15368547 0.9457888
000340 03 1c 10 bd 28 98 17 3f 17 a2 02 bf c1 03 76 3e
       -0.035182964 0.59216547 -0.5102858 0.2402487
000350 b1 f4 a2 3e 8f 4c 80 3d 74 fa 3e 3e 21 bd f6 be
       0.3182731 0.062646024 0.18650228 -0.4819117
000360 39 7d 02 3e 6b 91 b7 3e 3a cd 1a be 06 ac 99 3e
       0.12743081 0.35853133 -0.1511735 0.30014056
000370 8c eb 48 3f b7 c0 6e bc b3 7b dd 3d dc 8c 14 3f
       0.78484416 -0.014572314 0.108146094 0.58027434
000380 8b ae f2 bd c2 fe 18 3e 7d d1 5a 3e 71 64 8c 3e
       -0.11849698 0.14940932 0.21368976 0.2742038
000390 18 43 e4 3e a5 bc a4 be 5c 3c de be 54 72 84 3f
       0.44582438 -0.32175174 -0.43405426 1.034739
0003a0 bd 54 d9 be 19 9b c6 be a6 d8 41 bf 5a 12 8f 3e
       -0.42447463 -0.38790205 -0.75721204 0.2794369
0003b0 c1 4e a4 3f 3b 6c 9a be 49 06 02 3f 34 2a a7 3e
       1.2836534 -0.30160698 0.5079084 0.32649386
0003c0 14 f2 27 3f 4c 9b 6e bf 5f f3 7e 3d 0b db 0f be
       0.65603757 -0.93205714 0.062243816 -0.14048402
0003d0 a7 2f 2d 3c e9 c7 d9 3c ca 8c 9f be 59 04 13 3f
       0.010570443 0.026584582 -0.311621 0.5742851
0003e0 e1 5b 8b bd 7e da 1a bf 5a e9 04 3f 6b 5f 5d bf
       -0.06804634 -0.6048964 0.51918566 -0.8647372
0003f0 7b 19 1d 3f 10 1f 6a 3f 26 ba 2d bf 05 c2 36 3f
       0.61367005 0.9145365 -0.67862165 0.713898

lstm.bias_ih_l0 f4 [256]
000000 0b 47 d9 bf 00 21 44 be 21 6e 0b 3c fb 61 86 3e
       -1.6974806 -0.19153214 0.0085101435 0.26246628
000010 37 b7 a3 be 3d 0c 33 3f 1f 10 e9 3d 8d 08 0b 3f
       -0.3197572 0.6994055 0.11380028 0.5430992
000020 f7 f7 30 bc 22 59 e8 3e 10 83 df be fa c4 9b be
       -0.010801307 0.45380503 -0.4365468 -0.3042372
000030 b4 b0 59 be aa 34 87 bd 2f 76 74 3e fb eb 70 3d
       -0.21258813 -0.06601842 0.23873208 0.0588188
000040 9b 17 67 3e 92 be 8e bd d5 51 16 bf 52 5f 08 3d
       0.22567599 -0.06969942 -0.58718616 0.03329403
000050 3a 27 23 be 6f ac 00 c0 2d 12 ae be 6b f7 53 3c
       -0.15932932 -2.0105245 -0.33998242 0.012937407
000060 d5 14 b3 3c d9 87 da be 14 28 b4 bd c2 5e f1 3e
       0.02186052 -0.4268177 -0.08796707 0.47142607
000070 16 6e 40 3e 9a cb 57 be 13 a9 7a be 8b 7a 61 bf
       0.18791994 -0.21073762 -0.24478559 -0.8807761
000080 f5 7d 70 bd ee 80 7c be 86 e1 03 be 6e 5a a6 3c
       -0.058713872 -0.24658558 -0.12878999 0.020306792
000090 13 57 d4 bd b6 3f 15 be 75 df af be 1f d7 e6 3e
       -0.103681706 -0.14575085 -0.34350172 0.45086
0000a0 55 17 63 be 40 25 5c be 65 57 67 be 2e 0b d1 bd
       -0.22176869 -0.21498585 -0.22591932 -0.102072105
0000b0 59 63 68 bd 89 4c a5 3d 94 da 76 bd da da 11 3f
       -0.05673537 0.080712385 -0.060267046 0.56974566
0000c0 70 7a 39 bd 02 5b 99 3e f4 e9 fe bd dd 08 5b 3e
       -0.04528278 0.29952246 -0.12446967 0.213901
0000d0 6f 96 d5 3d 5c b2 33 be 91 4a 62 be e9 68 8b bf
       0.104290836 -0.17548507 -0.22098757 -1.0891391
0000e0 7c 67 eb bd b9 d7 8c 3e ae 88 fd 3e 33 ac ed bd
       -0.114943475 0.27508333 0.4951834 -0.1160511
0000f0 ee e8 d0 be 30 64 80 3e b5 90 00 3f b5 34 f6 be
       -0.4080271 0.25076437 0.50220805 -0.48087087
000100 23 1c 91 3c 53 b6 56 be 70 c6 44 be 75 3a a2 3e
       0.017713612 -0.20967989 -0.19216323 0.31685224
000110 61 88 a4 be f9 6a 04 bf 75 ea 43 be e3 ab 94 3e
       -0.321353 -0.5172573 -0.19132407 0.2903739
000120 ef 02 63 bd 84 c1 a1 3e 6d 52 1f 3e 78 2a bd bc
       -0.05542272 0.31592953 0.15558787 -0.02309154
000130 61 2c 21 be b1 b7 9f 3e 66 c0 93 3e 82 9c 77 3d
       -0.15739585 0.31194833 0.28857726 0.06045199
000140 d2 b6 71 be 02 b8 df bd c2 a2 df bd 83 ac 8f 3c
       -0.23604897 -0.109237686 -0.109197155 0.017538315
000150 0e db 0b 3e 43 84 a3 bd c6 ff a3 be 27 ba 15 3e
       0.13657781 -0.07984211 -0.32031077 0.14621793
000160 40 76 f8 be b6 f8 fe 3e 4e 0e 0b be a7 c9 7c 3e
       -0.48527718 0.49799126 -0.13579676 0.246863
000170 5a 0d 4d 3e 35 39 9c bd a7 6e 8f be 15 79 75 3e
       0.20024624 -0.07628099 -0.2801411 0.2397197
000180 67 3e 79 bc 42 59 df bd 14 2f ea bd 2c cb 86 bd
       -0.015212632 -0.109056965 -0.11434761 -0.06581721
000190 bf 70 98 be 53 df 2d 3e e4 90 9e 3d a5 58 b9 be
       -0.29773518 0.16979723 0.077424794 -0.36200443
0001a0 f3 97 14 be b7 1e 78 3e 3e 64 17 be 0a 82 d4 3d
       -0.14511089 0.24230467 -0.14784333 0.103763655
0001b0 e2 24 c5 be 43 7b e1 3b 60 b8 0d 3e 95 94 af be
       -0.38504702 0.006881149 0.13839865 -0.34293047
0001c0 f6 34 b7 3d be 03 03 bf c4 53 a6 bd 96 4b 57 3e
       0.08945648 -0.51177585 -0.08121446 0.21024927
0001d0 a3 12 1b be 55 d1 77 be 82 f4 a1 be b2 af 96 3d
       -0.15143828 -0.24200948 -0.31631857 0.0735773
0001e0 4a ce 01 be ca 7b 90 3e 1c 40 04 bd e4 ba 84 be
       -0.1267635 0.28219444 -0.032287702 -0.25923836
0001f0 60 82 56 be ca 91 d6 bc bf 49 91 3e ff 03 32 3e
       -0.20948172 -0.026192565 0.28376576 0.17384337
000200 b4 91 39 be 43 55 54 bc df a3 56 be 3b f2 72 3e
       -0.18121988 -0.012959781 -0.2096095 0.23725216
000210 d8 d3 d1 bd 78 ca 14 bf 12 88 d0 3e 98 52 96 3e
       -0.10245484 -0.5812144 0.40728813 0.2935989
000220 f0 e6 69 bd 5a ab 38 be b3 3f 08 bd 7f fe a8 be
       -0.057105005 -0.18034115 -0.033263873 -0.33006665
000230 c5 80 27 be 7e a4 ad 3d 28 43 66 3e 50 6d 02 bc
       -0.16357715 0.0847864 0.22486556 -0.007960632
000240 20 3f aa be 6d 9b 96 bd ef 0a cf 3d e3 39 0a be
       -0.33251286 -0.07353864 0.10109507 -0.13498645
000250 98 06 97 bd fa 2a d8 bd d8 99 63 3d 90 52 fd 3c
       -0.073743045 -0.10555072 0.05556664 0.030923158
000260 53 d9 0a 3e 82 00 47 bd fa 78 0c 3e ac c5 e4 bd
       0.13559465 -0.04858447 0.13718024 -0.111705154
000270 61 0d fc bc a7 5b 28 3d 37 8a 14 3e 62 ea 84 bd
       -0.030768098 0.04110303 0.1450585 -0.064900175
000280 f7 73 c9 3b 48 29 48 3d e6 e0 d8 bc 73 f4 1f be
       0.0061478573 0.048867494 -0.026474427 -0.15620594
000290 14 ca 32 be 01 63 42 3e 8d 78 05 3e e4 e2 20 be
       -0.17459899 0.1898308 0.13034268 -0.15711552
0002a0 a5 18 06 be f1 9b 0d 3e 95 3b d7 3d 31 d5 30 bd
       -0.13095339 0.13829018 0.10509411 -0.043172065
0002b0 90 e9 23 be b7 3f 2f 3e 6d 65 52 bd ec 64 5a be
       -0.16007066 0.17114149 -0.05136626 -0.21327561
0002c0 71 1b 41 be 2c c5 aa 3e 8f db ba bc 09 4f fc 3d
       -0.18858124 0.33353555 -0.022809772 0.12319762
0002d0 1b ad 48 bd 89 86 12 3e 75 50 49 3e bb 25 a9 bd
       -0.04899321 0.14309134 0.19659598 -0.0825915
0002e0 fd 3b 84 3c 4b 72 61 3e d9 c0 7d be 4a e1 41 bd
       0.016141886 0.22016256 -0.24780597 -0.047333993
0002f0 b3 e9 6c 3d 3c 8b 74 be 00 5d 6b 3e bd be 61 be
       0.05784006 -0.23881239 0.22984695 -0.22045417
000300 bf 07 67 bf 0a d6 36 bf 37 08 0d be b5 07 f5 3d
       -0.90246195 -0.7142035 -0.13772665 0.119643606
000310 f1 11 af be 7b 0f 6b 3f 06 ba 2f 3e 27 f1 48 3e
       -0.34193376 0.91820496 0.17160806 0.19623242
000320 78 dc e7 bd 70 df ba be e6 e6 74 be d5 4e 49 3f
       -0.11321348 -0.36498594 -0.23916206 0.78635913
000330 44 f8 80 be 60 ad da 3b 29 85 bd 3d 9d 7e 00 3e
       -0.25189412 0.0066735 0.09253914 0.12548299
000340 ec 8e 75 3e a0 00 0a 3f b6 6c 90 be 93 bd 6d bd
       0.23980302 0.53907204 -0.2820794 -0.05804212
000350 68 9e e5 bd 29 34 24 3e 95 55 b7 be 88 0a 25 be
       -0.11211854 0.16035523 -0.3580748 -0.16117299
000360 cd c4 cb bc e6 5e 82 be 3e 4f 17 bd 68 a1 a2 bd
       -0.024874115 -0.25463027 -0.036940806 -0.07940942
000370 81 60 0e 3e 46 8f 58 be 95 af c2 be 2f ca 4b 3e
       0.13904001 -0.21148404 -0.38024583 0.19901346
000380 2b 02 b2 3a 47 f4 73 be 4b 3a 1f be ce d6 ad bd
       0.0013580968 -0.23823653 -0.15549581 -0.08488236
000390 c4 56 0d 3f 0e d6 41 3c 17 15 01 be 3e 45 29 3e
       0.5521052 0.01183082 -0.12605701 0.1653032
0003a0 c4 d8 7d 3d 2e 6c 92 3e 5e f3 ff 3e f3 6c 14 be
       0.061974302 0.2859816 0.49990362 -0.14494686
0003b0 ce 9c 0b be f7 5e fc bd 3b 36 b4 be 89 95 8a 3e
       -0.13634035 -0.123228006 -0.35197625 0.2706721
0003c0 c4 bd 03 bf 6f b4 ad 3f 43 a6 a6 be 25 a0 0d bf
       -0.51461434 1.3570689 -0.32548723 -0.55322486
0003d0 4f e6 a9 3d 7c 49 46 3c 50 d2 9e bd 09 ee 9e be
       0.08295881 0.012102481 -0.07754958 -0.3104098
0003e0 fa 0d ce bd 5d 2e 71 3e ef 57 f5 bc c4 49 16 bd
       -0.100612596 0.23552842 -0.029949157 -0.036691442
0003f0 dc 8a 8d bd 9d 6e 3c be 8c 4c 74 3d ab e0 91 be
       -0.06911251 -0.1840157 0.059643313 -0.2849172

lstm.bias_hh_l0 f4 [256]
000000 21 80 d2 bf 18 7b 51 be 67 0f d4 bc 72 bf dc 3d
       -1.6445352 -0.20457113 -0.02588625 0.10778703
000010 f7 de 93 be 65 8d 21 3f 78 ff 81 3d 01 02 31 3f
       -0.28881046 0.63106376 0.06347555 0.6914368
000020 b5 0a 20 be 0c a3 8c 3e c6 44 91 be dd c9 e8 bd
       -0.15629084 0.27468145 -0.28372782 -0.11366627
000030 50 cf 23 be e6 08 a1 3d 5f 60 86 3e 34 f1 10 3a
       -0.15997052 0.07863025 0.262454 0.0005529106
000040 00 3e 2d 3e bf 95 54 be a9 59 08 bf be 26 01 3e
       0.16918182 -0.20760249 -0.5326181 0.12612435
000050 ea 38 a4 bd 78 e5 ea bf 57 0a 91 be 4b d8 d7 3b
       -0.08018668 -1.8351278 -0.283282 0.0065870634
000060 df d4 aa 3c a5 20 e2 be 06 d5 37 be af de 09 3f
       0.020853458 -0.4416553 -0.17952356 0.53855413
000070 3d 8e 4b 3d 28 70 72 be 1a 42 b2 be ab 7f 46 bf
       0.049696196 -0.23675597 -0.34816056 -0.77538556
000080 56 da 99 bd 5f 69 16 be 21 6b 37 be a6 a3 00 bd
       -0.075123474 -0.14688633 -0.1791196 -0.031406067
000090 ba 91 63 bd 0a 72 79 be f1 3c 9d be 13 a5 c0 3e
       -0.055558898 -0.24359909 -0.30710557 0.37625942
0000a0 47 36 08 be f0 1a cb be 27 f6 b4 be 14 70 4c 3d
       -0.13301955 -0.3966899 -0.3534405 0.049911574
0000b0 97 5c ef bd 67 35 87 bd 7f ad d3 bd f8 b4 11 3f
       -0.11687582 -0.066019826 -0.10335826 0.5691676
0000c0 55 6f f6 3c 07 9c 48 3e 0b cf 7c be 50 2b 6a 3e
       0.030082384 0.1959077 -0.24688356 0.22868085
0000d0 d7 87 7d bc 86 39 22 be 98 13 9f be bf c5 77 bf
       -0.015474281 -0.15842256 -0.31069636 -0.9678611
0000e0 d7 28 91 be 49 a5 99 3e 12 20 92 3e 6e 2b 6b bb
       -0.2835147 0.30008915 0.28540093 -0.003588404
0000f0 7d 57 07 bf fa 0f c2 3d 02 3f c9 3e 38 bf 12 bf
       -0.5286787 0.094757035 0.39305884 -0.57323027
000100 56 db e9 3d de bc c0 ba 5c f9 c6 be bb 11 a9 3e
       0.11418788 -0.0014704724 -0.3886212 0.3302134
000110 a8 9a af be 58 fe de be 9b 61 15 be 1c 6d 8a 3e
       -0.3429768 -0.43553424 -0.14588015 0.2703637
000120 93 7d 19 3e f3 44 7c 3e 67 82 47 3d d8 6a be bd
       0.14989309 0.24635677 0.048708346 -0.092977226
000130 4b 87 79 be 97 f3 e3 3d 51 da 31 3e 60 28 9b 3d
       -0.24368016 0.111304455 0.17368437 0.0757606
000140 a8 79 a4 be c3 04 fb bd 5b bd be 3d da 8a 35 3d
       -0.32124066 -0.122567676 0.093134604 0.044321872
000150 c3 ff 1f 3e a4 7d 85 3d 26 3a 99 be 27 04 4d 3d
       0.15624909 0.06518105 -0.29927176 0.050052788
000160 10 19 db be 29 86 07 3f ac 21 dd bc 40 05 72 3e
       -0.4279256 0.5293909 -0.026993595 0.23634815
000170 1a 26 25 3e 07 79 7f be 15 a6 6e be 0c eb 9e 3e
       0.16127816 -0.24948512 -0.23305543 0.31038702
000180 ef 4f 75 3d d8 61 01 be 3f da 03 be 59 75 0a bc
       0.059890684 -0.1263498 -0.12876223 -0.008450829
000190 f8 b4 39 be de bb 9a 3d 70 f8 63 3e 6d b5 c9 be
       -0.1813544 0.07555364 0.2226274 -0.3939623
0001a0 86 99 dd bc 78 21 40 3e 5c 3e 6b be d7 82 f5 3d
       -0.027050745 0.18762767 -0.22973007 0.11987846
0001b0 aa a0 c7 be 7e f3 07 3e c8 24 ee 3d b5 5f ae be
       -0.38989764 0.13276479 0.11628109 -0.34057394
0001c0 98 e5 a0 3d 1a 56 d9 be 6e 38 80 3c 3f 0f 9f 3e
       0.078562915 -0.42448503 0.015651908 0.3106632
0001d0 9f aa 1d be 95 0f 58 be fa 0c c9 be 5f 76 c9 3c
       -0.15397118 -0.21099694 -0.39267713 0.024592577
0001e0 8a 01 63 be 25 f8 47 3e 65 53 5b be 31 3d 93 be
       -0.22168556 0.19528253 -0.21418531 -0.28757623
0001f0 ae f3 2a be 1a 55 8f bd aa 7d 23 3e 9c 31 ff 3c
       -0.16694519 -0.06998654 0.15965906 0.031151585
000200 5a 8b a5 3a e4 4f b4 bc 17 a8 0d be 38 d5 8e 3e
       0.0012630031 -0.022010751 -0.13833652 0.27897048
000210 1e 00 fa 3a 9a 6c 18 bf af 08 78 3e 22 bd 1d 3e
       0.0019073521 -0.5954071 0.24222063 0.1540418
000220 95 65 96 bc b9 d6 48 be 8a 51 ba bd 31 28 47 be
       -0.018358985 -0.1961316 -0.090975836 -0.19448926
000230 02 a4 8a 3c dc 0e 88 3e 43 2f 1d 3d 3b 3e 0b be
       0.016923908 0.26573837 0.03837515 -0.13597958
000240 60 67 2d be 7f 5a 04 3b 53 53 1e bd d6 48 d3 bd
       -0.16933966 0.0020195541 -0.038653683 -0.10316627
000250 70 fc af bd 86 36 de bd ee 6b 18 3d e8 fa e4 3d
       -0.085930705 -0.10850243 0.037212305 0.11180669
000260 6b a9 b3 3d 4b 95 83 bd ec 7e 51 3e ab e5 81 be
       0.08772548 -0.0642496 0.20458573 -0.25370535
000270 d9 fe 2b be 23 e8 77 3d f0 f8 81 bd f0 a5 57 bd
       -0.16796435 0.060524117 -0.06346309 -0.052648485
000280 5f 87 82 3c af 67 b5 3d 92 c8 35 be c7 98 e5 bd
       0.01593369 0.08857667 -0.17752293 -0.112107806
000290 78 72 96 bd 80 26 05 3d 49 57 5d 3e be b1 3b be
       -0.07346052 0.03250742 0.21615328 -0.18329522
0002a0 a9 52 93 3d c9 16 0c 3e 72 3f cf 3c cc 91 13 be
       0.071935005 0.13680567 0.025298808 -0.14411086
0002b0 83 f1 5e bd 9a 47 1c 3d b4 dc 3f be 7a 55 89 bd
       -0.054429542 0.038154222 -0.18736535 -0.067057565
0002c0 fc 1b c0 bd 4a 8e 88 3e 30 c7 0c 3e 3b 46 40 3e
       -0.093803376 0.26671058 0.13747859 0.18776791
0002d0 25 e6 0a be bd f4 ee 3d 6f 1b da 3d 2c d7 88 be
       -0.13564356 0.11667774 0.10649764 -0.26726663
0002e0 d8 67 97 3d 47 09 3f 3e bb b3 31 be 02 d0 17 3e
       0.073928535 0.18655883 -0.17353718 0.14825442
0002f0 40 72 25 be 52 75 18 be 88 7c 60 3e 16 5e ae be
       -0.16156864 -0.14888504 0.21922505 -0.34056157
000300 d1 6f 5f bf ca 07 54 bf 43 c4 1d bd ac 4b 9f 3d
       -0.87279993 -0.82824385 -0.038517248 0.07778105
000310 ff c7 7f be dd 99 57 3f df e8 0f 3d 2b 6b 3f 3e
       -0.24978636 0.8421915 0.035134193 0.18693225
000320 fc 7b a8 bd ca d0 7d be 19 43 62 be a3 25 42 3f
       -0.08226773 -0.24786678 -0.22095908 0.7583868
000330 a6 21 9e be 7b d3 fc bd 39 e8 24 3e c3 1c 99 3d
       -0.30885047 -0.12345024 0.16104211 0.07476189
000340 42 ef c1 3e ce 9a ae 3e b8 35 66 be 00 6f 4b be
       0.37877852 0.34102482 -0.2248143 -0.19866562
000350 ed 08 0b be 96 f6 a0 3e f1 a8 64 be 8b 3f e2 bd
       -0.13577624 0.3143813 -0.22330071 -0.11047276
000360 32 77 35 bd 94 95 95 be 79 ec 64 bd 44 2b 24 be
       -0.044303127 -0.29215682 -0.05588958 -0.1603213
000370 bf 16 67 bd 4b e8 92 be 87 79 a8 be 1d 0b 11 3e
       -0.056418177 -0.2869285 -0.32905218 0.14164396
000380 c8 22 3f be 44 4d aa bd 33 92 ba be b5 5f 20 be
       -0.18665612 -0.083155185 -0.36439666 -0.1566151
000390 56 c8 0e 3f f1 72 03 3e 67 c7 44 be 16 42 29 3e
       0.5577444 0.12836815 -0.19216691 0.16529116
0003a0 c6 64 0b bd d5 95 1e 3e 36 fc fe 3e 67 18 3f be
       -0.034031652 0.15486844 0.49801797 -0.18661653
0003b0 c0 25 4e be 02 cb 3b be a5 3e d3 be 84 57 25 3e
       -0.20131588 -0.1833916 -0.4125873 0.16146666
0003c0 8c 6c 21 bf 35 66 af 3f 99 6c cd be 96 46 e7 be
       -0.63056254 1.3703066 -0.40121916 -0.4517104
0003d0 ba 2c 1d 3d 02 c6 78 bc 89 8a 97 be 85 f6 9c be
       0.038372733 -0.0151839275 -0.2959788 -0.3065683
0003e0 7f fc f3 bd 4d ac cd 3e 43 22 0c be 0c 73 16 3d
       -0.11913394 0.40170518 -0.13684945 0.03673081
0003f0 94 49 1d bd e3 6d 65 be 77 54 8c 3e 3e 77 3b be
       -0.038400248 -0.224052 0.27408192 -0.18307206

lstm.weight_ih_l1 f4 [256, 64]
000000 fb 23 b5 3d a8 27 72 3d 2f 87 8a 3f c1 0d 82 be
       0.08844753 0.05911985 1.0822505 -0.25401118
000010 10 88 04 bd e9 33 2b 3f 87 dd dc be 80 22 a8 be
       -0.03235632 0.66876084 -0.43137762 -0.3283882
000020 ca c3 ca 3d e4 97 b3 3e 6a bd 50 3d 20 a0 d6 3e
       0.09900625 0.3507682 0.05096189 0.4191904
000030 d7 4d 30 3c 0e a3 ba bd dc 02 f3 bd 00 25 c7 3e
       0.010760746 -0.091131315 -0.1186578 0.38895416
000040 ea 31 54 3d 8a 37 4e bc ca 2e 88 be 13 7b 7f 3e
       0.051805414 -0.012586484 -0.26598197 0.24949293
000050 ca e8 72 3e 7d 4a 35 3f 3e 41 90 3c dc 5e e5 bd
       0.23721614 0.70816785 0.017609235 -0.111997336
000060 94 87 bc 3e 28 56 c2 be 69 91 6e 3e 03 00 82 3e
       0.36822188 -0.37956357 0.23297657 0.25390634
000070 e6 50 af 3e 4d 2a 4d 3e a8 4f 8d be ad c5 35 3e
       0.34241408 0.20035668 -0.27599835 0.17751189
000080 af 88 c6 3d 1f bc 46 be 5b d6 db 3d a1 7b c7 bd
       0.09694039 -0.194077 0.107342444 -0.09740377
000090 4a c4 a5 be 2f 24 5e be a0 c4 f8 be 45 f7 de 3e
       -0.3237632 -0.2169349 -0.48587513 0.43548027
0000a0 a4 50 17 be a7 63 91 be 27 5b 42 bd 33 f1 5c 3e
       -0.14776856 -0.2839634 -0.04745021 0.21576385
0000b0 56 73 61 be ee ba c0 bc 49 8a eb 3e 72 aa 80 3e
       -0.22016653 -0.023526635 0.4600394 0.2513004
0000c0 38 a4 ba 3e 53 01 17 bf 71 ab b2 be 04 18 e9 3d
       0.36453414 -0.58986396 -0.34896424 0.11381534
0000d0 88 30 b1 bd 5c 63 68 be 84 96 0e bf 01 54 e7 bd
       -0.08651835 -0.22694153 -0.5569842 -0.11295319
0000e0 c2 53 24 bc fe d3 a9 be b9 5e 35 3e 35 4e ad bd
       -0.010029735 -0.3316955 0.17711915 -0.084621824
0000f0 e8 50 a5 3e f8 bc 4c 3f df 63 fb be 5e 9f 69 3c
       0.3228829 0.79975843 -0.49099633 0.0142591875
000100 5e c4 b9 be 6d fc 1e bf f6 4d 41 3f da c3 7c be
       -0.3628263 -0.6210392 0.75509584 -0.24684086
000110 33 8e 43 3d 34 16 1d 40 23 48 d4 bf d5 d3 17 bf
       0.047743034 2.4544802 -1.6584514 -0.59307605
000120 1f 32 04 be ff 69 5e 3c 8b 72 30 be 1b cf 7e 3f
       -0.12909745 0.013575076 -0.17231195 0.9953477
000130 f6 84 4e 3e 43 45 2c bf db 2e 72 bf f3 22 53 3e
       0.20167908 -0.67293185 -0.94602746 0.20618801
000140 16 23 35 3f a1 13 0c 40 b9 5c 95 be 02 fa 78 3f
       0.7075666 2.188698 -0.29172304 0.9725648
000150 9b d0 82 3e 10 7e a3 3e 6f 7c 42 bf af 6e b0 bd
       0.25549778 0.31932116 -0.7597112 -0.08614861
000160 a9 39 af 3e 5b d2 65 3f 90 85 01 bf 12 2e c4 3e
       0.3422368 0.897741 -0.50594425 0.383164
000170 b7 5a 5b 3e 2b 14 ea be c7 be 4b bd 61 ff d5 bd
       0.21421324 -0.45718512 -0.049742486 -0.104491
000180 f5 a9 00 3f 4f 30 b5 be f5 93 fe 3e 68 8e 56 3e
       0.50259334 -0.3538842 0.49722257 0.20952761
000190 fe 2f 9e 3e f8 b4 53 bf 11 29 e7 bd 55 6b ae 3e
       0.3089599 -0.8269801 -0.1128713 0.34066263
0001a0 7b 8a 94 be ba c6 97 be e2 80 e6 3e 0c 73 46 3f
       -0.29011902 -0.29643804 0.45020205 0.775193
0001b0 c0 fb 85 3d bc ed 54 bf 5a bb 75 3e 79 b3 da 3e
       0.06542158 -0.83175254 0.2399725 0.42715052
0001c0 75 03 8b 3d 25 ac 05 c0 77 db 63 bc 24 99 2d bf
       0.06787769 -2.0886319 -0.013907305 -0.678118
0001d0 ec b1 7d 3f a0 0f f2 bd 3f 8c 42 bf 62 8d af be
       0.9909961 -0.118193865 -0.7599525 -0.34287554
0001e0 68 83 09 bf 6c ab 6d be e7 df 00 3f 14 ca 3c bf
       -0.53716135 -0.23209924 0.5034165 -0.73745847
0001f0 83 36 77 3f df 82 36 3e 4d c4 bb be 9b 3c 19 be
       0.96567553 0.17823361 -0.36673203 -0.14964525
000200 03 a0 0f bd d5 1d b2 be 3e 2a 15 3f 51 2c 02 bf
       -0.03506471 -0.34788385 0.5826758 -0.5084887
000210 72 4b dd bd a0 b5 75 be aa 6a 9d bc ab d1 21 be
       -0.10805406 -0.23995066 -0.0192159 -0.15802638
000220 92 a1 08 3e df 41 99 3e 99 27 36 be a3 7b b4 3e
       0.13342884 0.29933068 -0.17788543 0.35250577
000230 db 8e 18 be d1 b4 2f bd 4a 67 af 3e c4 27 bb 3e
       -0.14898245 -0.04289705 0.3425849 0.36553776
000240 64 94 15 be c2 da 6a be 3a 14 b8 be cb b6 ca 3e
       -0.14607388 -0.22935012 -0.35952932 0.39592585
000250 69 ef 4b 3d a4 9a b3 3e 2b a6 93 3d eb 5d 06 be
       0.049788866 0.3507892 0.072094284 -0.13121764
000260 da a2 b8 be 59 0e 7a 3e f4 df ef bd 64 cf 29 3f
       -0.36061746 0.24419536 -0.117126375 0.6633208
000270 15 b2 d6 3e 60 8c 30 3e 2a 43 63 be 0a 09 e3 3e
       0.4193274 0.17241049 -0.2219359 0.44342834
000280 a6 5f e2 3d 45 2e 8b bb 00 f2 12 bd 04 b5 94 be
       0.110534 -0.004247459 -0.03587532 -0.29044354
000290 a4 5f dc 3e 64 a6 2b 3e ec 4a fb bd d4 7f ce 3e
       0.43041718 0.16762692 -0.122701496 0.403319
0002a0 42 e7 41 be a6 7e ec be 61 63 13 3f 08 fe 8b 3e
       -0.18935874 -0.46190375 0.57573515 0.27342248
0002b0 4a 6d 54 3e ce 9d 5c bc 7b e1 3c 3e 37 a5 c6 3d
       0.20744815 -0.013465358 0.18445389 0.09699481
0002c0 f6 a8 03 3e 8c 3e d5 3d a7 1e 3a be 71 e8 ab be
       0.12857422 0.104123205 -0.18175755 -0.33575776
0002d0 5a 48 da bd 3a 6b 34 bd ad 5f 8f be 40 31 92 be
       -0.10658331 -0.04404757 -0.28002682 -0.285532
0002e0 02 7d 8f 3d 7b 17 6f be 07 5a 98 3e 68 3a d5 3d
       0.07006265 -0.23348801 0.29756185 0.10411531
0002f0 b9 58 22 3f 60 56 a1 3e 03 47 c9 be 68 9a f3 be
       0.6341663 0.3151121 -0.3931199 -0.4757874
000300 72 d4 4c 3f 19 15 b0 3e ef 78 da 3e 5d 06 13 bf
       0.80011666 0.34391096 0.4267039 -0.57431585
000310 bc 62 5d 3e 08 d3 43 bf f7 2f b3 bd 68 52 45 3f
       0.21619695 -0.76493883 -0.08749383 0.77078867
000320 6b ef 0b 3f 77 3e a8 be 19 fe 5b be f5 b5 f2 3d
       0.546622 -0.32860157 -0.2148365 0.11851112
000330 fd 86 49 be a8 af a4 3d 3f f0 26 3f 4a b4 c2 3e
       -0.196804 0.08041316 0.65210336 0.38028175
000340 ed f1 9c be ad f1 91 3e 2e 26 ae be de 04 0c bd
       -0.30653325 0.28504696 -0.34013504 -0.03418433
000350 98 4d d2 3e ba e9 24 3f 95 c1 4c 3e 1c e1 85 bd
       0.41074824 0.6441914 0.1999572 -0.06537077
000360 47 97 ea 3e 68 de f7 3c a4 3d 1f 3e 89 0f d9 3e
       0.4581854 0.030257419 0.15550858 0.42394665
000370 33 1f da 3e 7c 4f e5 3b c7 84 0b be 9d 08 29 3f
       0.42601928 0.0069980007 -0.1362487 0.6602877
000380 13 86 33 be 61 19 aa bc 14 dd 19 be a5 36 76 be
       -0.17531614 -0.020764055 -0.15025741 -0.24044283
000390 48 47 01 bf 16 00 0a 3f 06 f3 f8 3e ae ed aa 3e
       -0.5049939 0.5390638 0.48622912 0.3338446
0003a0 44 df 32 3d f5 3b 9a be 83 3e f1 3c 1f e1 65 be
       0.043669954 -0.3012387 0.029448753 -0.22449158
0003b0 f9 12 a2 be c9 22 dc 3d 79 4a e0 3e 0e 02 6f be
       -0.316551 0.10748822 0.43806818 -0.23340628
0003c0 9c 02 f1 3e c3 9c 42 3f 2e 45 05 be 7b 30 f5 3e
       0.47072303 0.7602045 -0.13014671 0.4788855
0003d0 3e be af bc c2 0d 42 3e 60 78 8f bd 36 8e b6 3d
       -0.02145302 0.1895056 -0.070053816 0.08913843
0003e0 35 66 6c 3e 04 41 cd be 3a 4c ab 3c f1 ad e8 3e
       0.23085864 -0.40088665 0.020910371 0.45445207
0003f0 39 de 4b 3c 52 c1 9b 3e 87 d8 f6 be 2e 34 1c bf
       0.012443119 0.3042093 -0.48212072 -0.6101712
