scripts/checkpoints/best_model-v1.ckpt (torch, 248492 bytes, 14 tensors)

conv1.weight f4 [16, 1, 3]
0	0xbf0fc0bd	-0.5615347
1	0xbca232f3	-0.019799685
2	0x3f128e9c	0.57248855
3	0x3e44ce67	0.19219361
4	0xbda0d3d7	-0.07852905
5	0xbf07bd55	-0.5302327
6	0x3df6d693	0.120526455
7	0x3e929978	0.28632712
8	0xbd904860	-0.070450544
9	0xbd65ef73	-0.05613656
10	0xbe0b2423	-0.13588004
11	0xbeaf2c6b	-0.34213576
12	0xbea252f2	-0.31703907
13	0xbe821dff	-0.2541351
14	0x3e040460	0.12892294
15	0x3e5f8a02	0.2182999
16	0xbdf3e038	-0.11908001
17	0x3e9dd364	0.3082534
18	0x3eb8d4ab	0.36099753
19	0x3de5b1cb	0.11215552
20	0xbeadbbca	-0.33932334
21	0xbe8dc968	-0.27692723
22	0xbd936003	-0.07196047
23	0xbd099cdb	-0.033596855
24	0x3d47afdf	0.048751708
25	0xbd27ef10	-0.040999472
26	0x3ef3ac65	0.47592464
27	0x3e3ba596	0.18324885
28	0xbdef92a6	-0.11697893
29	0x3e958035	0.29199377
30	0xbe9e5ae5	-0.30928722
31	0xbd7b78de	-0.061394565
32	0xbc60bda3	-0.013717088
33	0xbde3236f	-0.11090743
34	0xbedbb6cf	-0.4291291
35	0x3f2d7458	0.6775565
36	0xbeb9910a	-0.3624347
37	0xbe1ddfec	-0.1541745
38	0x3c6f9f37	0.014625362
39	0xbf27177b	-0.65270203
40	0x3f31709d	0.6931246
41	0xbe92a4b4	-0.28641284
42	0xbe7ff4a5	-0.24995668
43	0x3f29aee5	0.6628249
44	0xbf53c89b	-0.82727975
45	0x3ea2e344	0.31814015
46	0x3d6b472d	0.057440925
47	0x3e47bfca	0.19506755

conv1.bias f4 [16]
0	0xbf2b912a	-0.6701838
1	0x3e2e014a	0.16992679
2	0xbfaf8f06	-1.3715522
3	0xbfbed7dc	-1.4909625
4	0xbeb04c1f	-0.34433076
5	0xbf0c6963	-0.5484831
6	0xbf275bc1	-0.6537438
7	0xbd367bbc	-0.044551596
8	0xbf9494c5	-1.1607901
9	0xbfb84628	-1.439641
10	0xbfde42a1	-1.7364084
11	0xbf1fd951	-0.62440974
12	0xbf8fc9be	-1.1233442
13	0xbd94427a	-0.07239242
14	0xbe17b11b	-0.14813654
15	0xbecfc3e8	-0.40579152

conv2.weight f4 [32, 16, 4]
0	0xbe3b3bd0	-0.18284535
1	0xbf02c4b2	-0.51081383
2	0xbe2747e0	-0.16336012
3	0xbe93eb5a	-0.28890496
4	0xbd218493	-0.039433073
5	0x3e870d91	0.26377538
6	0x3d583c82	0.05279208
7	0xbe53ed12	-0.20695904
8	0xbe929c9c	-0.28635108
9	0x3dd661ac	0.10467848
10	0xbf397e73	-0.7245857
11	0xbefd27ee	-0.49444526
12	0xbd6900a7	-0.056885388
13	0xbd3895a2	-0.045064576
14	0xbd85221a	-0.06500645
15	0xbf1f8252	-0.6230823
16	0xbe8fc2be	-0.28078264
17	0xbe0cd441	-0.13752843
18	0xbdeef8b7	-0.11668532
19	0xbe9062e9	-0.28200462
20	0xbe9deca9	-0.3084462
21	0x3f0bb8c0	0.5457878
22	0xbdacc954	-0.08436838
23	0x3d463607	0.04839137
24	0x3e435ee3	0.19079165
25	0x3dd63a2e	0.10460316
26	0xbef2d415	-0.4742743
27	0xbf4b52e6	-0.7942337
28	0xbe614a1b	-0.22000925
29	0xbed3e986	-0.41389102
30	0xbed945b6	-0.42435998
31	0xbf0d0e2e	-0.5509976
32	0xbe49a922	-0.19693425
33	0xbf2a1870	-0.6644354
34	0xbf32bab3	-0.6981613
35	0xbf246bf0	-0.642272
36	0xbeac357a	-0.3363455
37	0xbebf9eca	-0.37425834
38	0xbecefdce	-0.40428013
39	0xbf2df556	-0.6795248
40	0xbeba668a	-0.36406356
41	0xbddae99e	-0.1068909
42	0xbe4b0ead	-0.19829817
43	0xbecb535f	-0.39712045
44	0xbec62cad	-0.3870596
45	0xbebc8fff	-0.3682861
46	0xbe907ae8	-0.2821877
47	0xbec79163	-0.3897811
48	0x3c44385f	0.011976331
49	0xbe45c654	-0.19313937
50	0xbe1221a5	-0.14270647
51	0xbda0fcf6	-0.078607485
52	0xbe919188	-0.28431344
53	0xbd380949	-0.04493073
54	0xbe9c1cf4	-0.3049084
55	0xbf87ef00	-1.0619812
56	0xbeaa7737	-0.3329408
57	0xbed3ff81	-0.41405872
58	0xbf1023bd	-0.5630453
59	0xbe659c93	-0.2242301
60	0x3cf7ffb3	0.030273294
61	0x3eb4f5da	0.3534382
62	0x3eac3c4a	0.33639747
63	0x3e4543de	0.1926417
64	0xbd5a1fad	-0.053252865
65	0xbd88fe7c	-0.06689164
66	0x3cc416a1	0.023936572
67	0xbe24660e	-0.16054556
68	0xbdcff87c	-0.101548165
69	0x3d2963f7	0.0413551
70	0xbd376ad3	-0.04477961
71	0xbd8bd078	-0.06826872
72	0x3de44305	0.111455955
73	0xbe1c5091	-0.15265109
74	0xbd98f52c	-0.07468638
75	0xbdb65e03	-0.0890465
76	0xbcf9cc73	-0.030492997
77	0xbe1dae9f	-0.15398644
78	0xbde20f24	-0.11038044
79	0x3c91b4d0	0.017786413
80	0xbdc4f5a3	-0.09617164
81	0xbca62418	-0.020280883
82	0x3bb5dc26	0.0055499254
83	0x3c8cb820	0.017177641
84	0xbd930adf	-0.07179808
85	0xbe42059b	-0.18947451
86	0xbe66cffc	-0.22540277
87	0xbe0b8e56	-0.13628516
88	0xbe18f92d	-0.14938803
89	0xbe008c1e	-0.1255345
90	0x3b4df004	0.0031423578
91	0xbd6358c7	-0.055504587
92	0x3d1d9b50	0.038478196
93	0xbdc88a1e	-0.09791969
94	0xbe03af0f	-0.12859748
95	0xbd20875e	-0.039191596
96	0xbe6cd23c	-0.23127073
97	0xbe79e927	-0.24405347
98	0xbe1e16a0	-0.15438318
99	0xbe5bbd90	-0.21459031
100	0xbd73028a	-0.059328593
101	0xbd9ca7c8	-0.07649189
102	0x3d3ca1b2	0.046052642
103	0x3de94f24	0.11392048
104	0xbe5bbfa4	-0.21459824
105	0x3ac1e2f9	0.0014792375
106	0xbbcf2eed	-0.0063227327
107	0xbe038abe	-0.12845895
108	0xbddc5bab	-0.10759672
109	0xbc1ec323	-0.009690079
110	0xbd8216d0	-0.063520074
111	0xbde7f4a4	-0.11325958
112	0xbd2e2c89	-0.04252294
113	0xbd6f51e9	-0.058427725
114	0xbe07d1ce	-0.13263628
115	0xbe1cf9f5	-0.15329726
116	0xbd037e5e	-0.032102935
117	0xbd7446c4	-0.0596378
118	0xbe27ffe2	-0.16406205
119	0xbe2e5ff4	-0.1702879
120	0xbd9e5355	-0.07730738
121	0xbe0759f1	-0.13217904
122	0xbe6d8caa	-0.2319819
123	0xbc899506	-0.016794693
124	0xbda61618	-0.08109683
125	0xbde53f70	-0.1119374
126	0xbe55b0f2	-0.2086828
127	0xbd450d1e	-0.048108213
128	0xbc25533e	-0.010090647
129	0x3b3d5c5a	0.0028894157
130	0xbd994a67	-0.07484894
131	0xbdab9d77	-0.083796434
132	0xbe0f6035	-0.14001544
133	0xbd8c168b	-0.06840237
134	0xbe198e0c	-0.14995593
135	0xbe24bf80	-0.16088676
136	0xbcf28239	-0.02960311
137	0xbe2ee8c3	-0.17080979
138	0xbe318348	-0.17335236
139	0x3c56471c	0.013078477
140	0x3b475eb1	0.003042143
141	0xbc7e4923	-0.015520367
142	0xbe0575f5	-0.13033278
143	0xbe5a1ec2	-0.21300796
144	0xbd7e3bc8	-0.06206873
145	0xbe19bbe1	-0.15013076
146	0xbbf18338	-0.007370379
147	0xbdae57c7	-0.08512836
148	0xbe04fd72	-0.12987307
149	0xbe5e937c	-0.21735948
150	0xbe99c63b	-0.3003405
151	0xbe90c8e3	-0.28278264
152	0xbd8b6c9d	-0.06807826
153	0xbda2d90a	-0.07951553
154	0xbdde6fe1	-0.10861183
155	0x3d04ed3d	0.03245281
156	0x3d1ea7d8	0.038734287
157	0xbdaec5f4	-0.0853385
158	0x3906b567	0.00012846813
159	0xbd99ea84	-0.075154334
160	0xbdfd7eaa	-0.12377675
161	0xbdee53cb	-0.11637076
162	0xbe51cde1	-0.20488693
163	0x3dc522fe	0.09625815
164	0x3bfeb9b0	0.0077736005
165	0xbd52c33e	-0.05145573
166	0xbe1c5dd4	-0.15270168
167	0xbde5fb32	-0.11229552
168	0xbe77db19	-0.24204673
169	0xbd8e5262	-0.06949307
170	0xbc003990	-0.007826224
171	0x3c0ebd84	0.008712176
172	0x3cc995b7	0.024607522
173	0x3d13ff81	0.03613234
174	0xbae424b5	-0.0017405959
175	0xbe261219	-0.16217841
176	0xbde7fa29	-0.11327011
177	0xbe0f826b	-0.14014594
178	0x3cee79aa	0.029110748
179	0xbe06c4ae	-0.13160965
180	0xbde24f44	-0.11050275
181	0xbdb16bf6	-0.0866317
182	0xbd878089	-0.06616313
183	0x3d97ede6	0.074184224
184	0xbdf1b627	-0.11802321
185	0xbe2df7fc	-0.1698913
186	0xbe405967	-0.18784104
187	0xbddb0b21	-0.10695482
188	0xbd48eea1	-0.0490557
189	0xbe3f7917	-0.18698536
190	0xbe428be9	-0.18998684
191	0xbdfc82ec	-0.12329659
192	0xbd3c8348	-0.046023637
193	0xbe2ffe07	-0.17186747
194	0xbdd94af0	-0.10609996
195	0xbdb6fcd8	-0.08934945
196	0xbdeac620	-0.114635706
197	0xbe3cd195	-0.18439324
198	0xbcffd461	-0.0312292
199	0xbd38d8bb	-0.045128565
200	0xbdd5ab70	-0.1043309
201	0xbd9ede2e	-0.07757221
202	0xbd78a679	-0.060705636
203	0x3d856f88	0.065154135
204	0xbb590660	-0.0033115372
205	0x3bba4fbc	0.0056857746
206	0x3da2c3a2	0.0794747
207	0xbca56860	-0.020191371
208	0xbe280a1f	-0.16410111
209	0xbe32d396	-0.17463526
210	0xbd4d176a	-0.050071158
211	0xbb1c3349	-0.002383428
212	0xbda1a37a	-0.07892509
213	0xbe6dbdf5	-0.23216994
214	0xbeb14bad	-0.3462805
215	0x3cdc819e	0.026917275
216	0xbd72379e	-0.059135072
217	0xbe3d7a64	-0.1850372
218	0xbd857767	-0.06516915
219	0xbc275f13	-0.010215539
220	0x3dc599fd	0.096485116
221	0xbdc5c26b	-0.09656223
222	0x3b19d8cd	0.002347517
223	0xbd16810e	-0.03674417
224	0xbe213229	-0.15741791
225	0xbe4282d9	-0.18995227
226	0xbe1b2484	-0.15150648
227	0xbe1193a8	-0.14216483
228	0xbd16f960	-0.036858916
229	0x3cce6b9a	0.025197793
230	0x3c0ba04e	0.008522106
231	0xbd83045b	-0.06397315
232	0x3d6fd521	0.058552865
233	0xbe3524dc	-0.17689842
234	0xbd17e2f5	-0.037081677
235	0xbe693f97	-0.22778164
236	0xbd373008	-0.04472354
237	0xbe96c868	-0.29449773
238	0xbe503075	-0.20330985
239	0xbd7329bb	-0.05936597
240	0x3cf57d39	0.029966937
241	0xbd8611b3	-0.065463446
242	0x39bf0838	0.00036436482
243	0xbdad4ea7	-0.08462267
244	0xbd51e4be	-0.051243536
245	0xbd7ca4b9	-0.06168053
246	0xbdb9a13c	-0.09063956
247	0xbe56a547	-0.20961486
248	0xbda4556c	-0.080241054
249	0xbd019d47	-0.031644132
250	0xbdc614d3	-0.09671941
251	0xbda013e4	-0.07816294
252	0xbe195b0b	-0.14976136
253	0xbeb2c8b6	-0.34918755
254	0xbe868a74	-0.26277506
255	0xbe92701a	-0.28601152

conv2.bias f4 [32]
0	0x3e5c499b	0.21512453
1	0xbd8ad02b	-0.06777986
2	0xbe23f5f4	-0.16011792
3	0xbe348c5a	-0.17631665
4	0x3de0f4fd	0.10984228
5	0xbe4396b0	-0.19100451
6	0xbebe2306	-0.37136096
7	0xbf168914	-0.58802915
8	0x3dfd4086	0.123658225
9	0xbe2e4f8c	-0.17022532
10	0xbeea8ffd	-0.4581298
11	0x3ebdfc63	0.37106618
12	0xbde9c154	-0.114138275
13	0xbdfec59a	-0.12440033
14	0x3f00c892	0.50306046
15	0xbe0702f5	-0.13184722
16	0x3d7b3619	0.06133089
17	0xbeb62b8a	-0.35580093
18	0x3ddf6531	0.109079726
19	0x3dbaf199	0.09128112
20	0xbcdd5178	-0.027016386
21	0x3dd82be5	0.10555247
22	0xbdcea633	-0.10090294
23	0xbdc0c96d	-0.09413419
24	0x3f1a6061	0.6030331
25	0xbea17d5b	-0.3154095
26	0xbe390a69	-0.18070377
27	0x3d7090b7	0.05873176
28	0xbe5d363e	-0.21602723
29	0x3f05d944	0.52284646
30	0xbe770110	-0.24121499
31	0xbe5805ee	-0.21096012

lstm.weight_ih_l0 f4 [256, 32]
0	0xbf2fadc3	-0.68624514
1	0xbddcd62a	-0.10783036
2	0x3e368c2a	0.17826906
3	0x3d4086b4	0.047003463
4	0xbf500815	-0.8126233
5	0x3e69397e	0.22775838
6	0xbecdae49	-0.40172032
7	0xbdda9f46	-0.1067491
8	0xbf8b0875	-1.0861956
9	0x3cfcab12	0.030843291
10	0xbeaf39d3	-0.34223804
11	0xbe279f51	-0.16369368
12	0xbf394be9	-0.72381455
13	0xbe265612	-0.1624377
14	0x3dc9a8fd	0.09846685
15	0xbf14ec32	-0.58172905
16	0xbf1154d9	-0.5677009
17	0xbdf28221	-0.11841226
18	0xbf764338	-0.9619632
19	0xbd5b14f1	-0.05348677
20	0xbfcd18b8	-1.6023169
21	0xbf9ee502	-1.2413638
22	0xbeaeee6a	-0.3416627
23	0x3c170fd5	0.009220083
24	0xbf00e13e	-0.5034369
25	0xbd0cc611	-0.03436858
26	0x3df14e2e	0.1178249
27	0xbf4466c5	-0.76719314
28	0xbe360b16	-0.17777666
29	0xbf4d68de	-0.8023814
30	0x3db4daa1	0.08830763
31	0xbd93c66e	-0.07215582
32	0xbc95e8ad	-0.018299425
33	0x3e763b3d	0.24046035
34	0xbd754c4e	-0.059887223
35	0xbd95f36d	-0.073218204
36	0xbe3d8206	-0.18506631
37	0x3e32c51a	0.17458001
38	0xbee4882f	-0.4463515
39	0x3e4e1fb6	0.20129284
40	0xbe310393	-0.1728652
41	0xbcd779ae	-0.026303139
42	0x3e04a387	0.12953006
43	0xbba34373	-0.004982406
44	0x3ec902c6	0.39259928
45	0x3de80679	0.113293596
46	0x3ce1b143	0.027550345
47	0xbaae95a7	-0.0013319746
48	0xbee4187a	-0.44549924
49	0xbcef0799	-0.029178428
50	0xbefa9fb8	-0.4894998
51	0x3e0aea03	0.13565831
52	0xbee679a5	-0.45014682
53	0xbe1a045d	-0.15040727
54	0x3e2368f2	0.15958002
55	0xbb99a0e2	-0.004688368
56	0xbf3ebd22	-0.74507344
57	0xbe3c5c24	-0.18394524
58	0x3dc7c615	0.09754578
59	0xbdf212f9	-0.11820025
60	0xbd9d7b13	-0.0768949
61	0xbe96004d	-0.29297104
62	0x3d9e5ede	0.07732938
63	0xbec87b16	-0.39156407
64	0xbdb9d4d3	-0.09073796
65	0x3cd9ea2b	0.026600918
66	0x3be541eb	0.0069963834
67	0x3d11d831	0.035606567
68	0xbe006924	-0.12540108
69	0x3d1039e7	0.03521147
70	0xbe980595	-0.2969176
71	0xbeb4267e	-0.35185617
72	0xbe070f48	-0.13189423
73	0xbe12c63b	-0.14333431
74	0xbd302d23	-0.043011796
75	0xbdd31296	-0.10306279
76	0x3eb53312	0.35390526
77	0x3e2b0df6	0.16704544
78	0xbe61dd3f	-0.22057055
79	0xbd8b5e42	-0.068050876
80	0xbe402806	-0.18765268
81	0xbebda059	-0.37036398
82	0xbe7c4181	-0.24634363
83	0x3e0f7fbb	0.14013569
84	0xbe5c4e81	-0.21514322
85	0xbe13a424	-0.14418083
86	0x3d6a30f7	0.057175603
87	0x3ceb0b35	0.028691867
88	0xbe0bc1f0	-0.136482
89	0xbe4fe1bd	-0.20300956
90	0x3d475aa7	0.048670437
91	0xbe321f08	-0.1739465
92	0x3d47ddcb	0.048795503
93	0x3ea09d5c	0.31370056
94	0xbe4427f6	-0.19155869
95	0xbcfe5bb9	-0.031049596
96	0xbf1e3194	-0.617944
97	0x3d99a92d	0.07502971
98	0xbe14d740	-0.14535236
99	0x3decdc89	0.11565501
100	0xbf95ce12	-1.1703513
101	0xbe1578a3	-0.145968
102	0xbf56f4a1	-0.83967024
103	0xbdf3e61f	-0.119091265
104	0xbfc0fec8	-1.5077753
105	0xbebc7fd5	-0.36816278
106	0xbd8cb733	-0.0687088
107	0xbcf1e0d0	-0.029526144
108	0xbdfe0677	-0.12403577
109	0xbd7d7831	-0.0618822
110	0xbdaa4c7a	-0.08315368
111	0xbf1dc3da	-0.6162697
112	0xbf81f034	-1.0151429
113	0xbdcf41c1	-0.101199634
114	0xbfd36415	-1.6514918
115	0xbdf316af	-0.11869561
116	0xc0086392	-2.1310773
117	0xbfc0ee38	-1.5072699
118	0xbea3ec49	-0.3201621
119	0x3df24d83	0.118311904
120	0xbf87a215	-1.0596339
121	0xbd49a7fb	-0.049232464
122	0x3dfcf5be	0.12351559
123	0xbfb19455	-1.3873392
124	0xbd300714	-0.0429755
125	0xbf9273d6	-1.14416
126	0xbd628175	-0.05529924
127	0xbc7108b2	-0.014711546
128	0xbe106e7c	-0.14104646
129	0x3d8eb2c8	0.069676936
130	0xbdc32b8d	-0.09529791
131	0x3d14f0c3	0.03636242
132	0x3e98d4cb	0.29849848
133	0x3d8955b3	0.06705799
134	0x3e3b1360	0.1826911
135	0x3e80f404	0.2518617
136	0x3f585e32	0.8451873
137	0xbd85897f	-0.06520366
138	0x3ee1a5d4	0.4407183
139	0x3e9b9b78	0.3039205
140	0xbdd686d9	-0.10474939
141	0x3e843231	0.25819543
142	0x3e90df7c	0.28295505
143	0x3f309a6c	0.6898563
144	0x3ea53f0f	0.32274672
145	0xbe1413b7	-0.14460646
146	0x3e7ea4f2	0.24867609
147	0x3e742e32	0.23845747
148	0x3eb52159	0.35377005
149	0xbcfd2f41	-0.030906321
150	0x3d7ffbed	0.062496115
151	0xbe608700	-0.21926498
152	0xbecca324	-0.39968216
153	0xbde864a5	-0.113473214
154	0xbdfe0b22	-0.12404467
155	0x3eda2963	0.426097
156	0xbda1caab	-0.07899984
157	0x3f2424e8	0.64118814
158	0x3cec78c2	0.028866176
159	0x3c4d8f54	0.012546379
160	0xbec435f9	-0.38322428
161	0x3de9d69a	0.11417885
162	0x3e8d6b11	0.27620748
163	0xbd72d862	-0.05928839
164	0x3e548697	0.20754467
165	0x3e2371d0	0.15961385
166	0x3e396fc6	0.18109044
167	0x3dd1aa80	0.102375984
168	0x3eb43996	0.35200185
169	0xbde399b9	-0.11113305
170	0x3e57b712	0.2106593
171	0x3db42089	0.08795268
172	0xbc938abd	-0.018010492
173	0x3d997a14	0.07493988
174	0xbe4103e5	-0.18849142
175	0xbebece9e	-0.3726701
176	0x3dab5395	0.083655514
177	0x3e3630f4	0.17792112
178	0x3e9646f1	0.29351
179	0x3e07402a	0.1320807
180	0x3e5e2b61	0.21696235
181	0x3db2bd25	0.08727483
182	0xbf39187b	-0.7230298
183	0x3dbd1d6c	0.092341274
184	0xbca60590	-0.020266324
185	0xbf0ff426	-0.56231916
186	0xbe798b25	-0.24369486
187	0x3bdaa38f	0.0066723297
188	0xbe89933e	-0.2687015
189	0xbf4e8075	-0.8066476
190	0xbd4c0af1	-0.049815122
191	0x3eae5c39	0.34054735
192	0xbd9bf26b	-0.07614597
193	0xbd38fa6d	-0.0451607
194	0x3d16527f	0.03669977
195	0xbdf2e284	-0.11859611
196	0xbdacda9f	-0.08440136
197	0x3d68f9eb	0.056878965
198	0x3f8de940	1.1086807
199	0xbf173b52	-0.5907489
200	0x3e3e09b5	0.1855839
201	0x3dda9785	0.10673431
202	0xbca47275	-0.020074109
203	0xbe2a8b57	-0.16654716
204	0x3dab2136	0.08355944
205	0xbed78e2f	-0.42100665
206	0xbd936fae	-0.071990356
207	0x3df21236	0.1181988
208	0x3f0bd6fb	0.5462491
209	0xbde1e869	-0.11030657
210	0x3cddd270	0.027077883
211	0xbf019d6c	-0.5063083
212	0x3f90d710	1.1315632
213	0x3edc5599	0.43034056
214	0xbe986894	-0.29767287
215	0xbd47fa15	-0.04882248
216	0xbe5b7afa	-0.2143363
217	0x3d60390c	0.054741904
218	0xbd866640	-0.065624714
219	0x3d85dbe3	0.06536081
220	0x3c82d8de	0.015972551
221	0xbea29595	-0.31754747
222	0xbd5f77ee	-0.054557733
223	0xbe42440e	-0.18971273
224	0xbdd092aa	-0.10184224
225	0xbd145992	-0.036218233
226	0x3bcdfb7c	0.006286083
227	0x3d02a014	0.031890944
228	0xbf249248	-0.6428571
229	0x3df57270	0.11984718
230	0xbebef764	-0.3729812
231	0x3ee1dc37	0.44113323
232	0xbf13d466	-0.5774597
233	0x3e041033	0.12896805
234	0x3eac34a7	0.3363392
235	0x3ebfff59	0.37499502
236	0xbe665323	-0.22492652
237	0x3e9087fd	0.2822875
238	0x3dd8b903	0.10582163
239	0x3f4b7076	0.79468477
240	0x3f3084ce	0.68952644
241	0xbde2a931	-0.11067427
242	0x3e2d8134	0.16943818
243	0x3eb315c3	0.3497754
244	0xbe8a460f	-0.27006575
245	0xbeb44ce8	-0.35214925
246	0x3dc29d3c	0.09502646
247	0xbcbbb73d	-0.022914523
248	0xbe4d5021	-0.20050098
249	0x3b0fa4d4	0.0021918314
250	0xbd73fd9d	-0.059568036
251	0x3e6ae3f0	0.22938514
252	0x3cfd862b	0.030947765
253	0x3f157544	0.5838206
254	0x3d4a291b	0.049355607
255	0x3d281b9b	0.04104195

lstm.weight_hh_l0 f4 [256, 64]
0	0xbf14f6ab	-0.58188885
1	0xbf1d8edb	-0.61546105
2	0xbefca52e	-0.49344772
3	0x3e6eb1a7	0.23309956
4	0x3f22e37a	0.6362835
5	0x3cfe1323	0.031014984
6	0xbeea89f5	-0.45808378
7	0xbed4e507	-0.41580984
8	0x3f85f1b8	1.0464392
9	0x3e30544a	0.17219654
10	0xbfa65c1c	-1.299686
11	0xbf1e68bc	-0.6187856
12	0x3cfa9e4c	0.03059306
13	0xbf29df2e	-0.6635617
14	0xbf67eaec	-0.9059284
15	0x3e8e2064	0.27759087
16	0x3eac1af2	0.33614308
17	0x3f45c9f0	0.7726126
18	0x3e884221	0.26612952
19	0x3da81c94	0.08208576
20	0xbf444876	-0.76673067
21	0xbe4384a2	-0.19093564
22	0x3c2efe70	0.01068078
23	0x3ecda0b8	0.4016168
24	0xbef9cdd7	-0.48789856
25	0x3f42be79	0.7607189
26	0x3e0def13	0.13860731
27	0xbf8d229f	-1.102619
28	0xbfabc2f3	-1.3418869
29	0x3f51094d	0.81654817
30	0xbfde6da3	-1.7377208
31	0x3f89bb68	1.0760317
32	0xbd76d6c1	-0.0602634
33	0xbe9ba27e	-0.3039741
34	0x3e99f247	0.30067655
35	0xbf71547b	-0.9426953
36	0x3f828ff2	1.0200179
37	0x3f6832a9	0.907023
38	0xbeb3a53e	-0.35087007
39	0xbf02f22f	-0.5115079
40	0xbe04cb75	-0.12968238
41	0xbf39cbdb	-0.72576684
42	0x3eb38ca6	0.35068244
43	0xbf078750	-0.52940845
44	0xbef4eaa8	-0.4783528
45	0xbde34c76	-0.11098568
46	0xbec5f2bc	-0.38661754
47	0x3f2272fc	0.634567
48	0xbf106fea	-0.5642077
49	0xbe2ed404	-0.17073065
50	0x3f745ec6	0.9545711
51	0x3f4b6b54	0.79460645
52	0xbf87b0a7	-1.0600785
53	0x3f060c9b	0.52362984
54	0x3f8863eb	1.0655493
55	0xbf2bc641	-0.67099386
56	0xbefd181d	-0.4943246
57	0x3ed7bd09	0.4213641
58	0xbebb34dc	-0.36563766
59	0xbee0c97e	-0.43903726
60	0x3e9392c9	0.28822926
61	0x3f4b1150	0.7932329
62	0xbebd470e	-0.36968273
63	0xbec45cf2	-0.38352162
64	0x3f639711	0.88902384
65	0xbf011938	-0.50429106
66	0x3f9e7184	1.2378392
67	0xbee87553	-0.4540201
68	0xbf9bc5a2	-1.2169688
69	0xbfb5d804	-1.4206548
70	0xbf9a9490	-1.2076588
71	0xbee04810	-0.4380498
72	0x3f28ab92	0.65886796
73	0xbf1b0c54	-0.60565686
74	0x3f089626	0.5335411
75	0x3f2da967	0.6783661
76	0xbc36626f	-0.011131867
77	0x3ecf6eb9	0.40514162
78	0x3f328c05	0.697449
79	0xbe055b11	-0.1302302
80	0x3d16a5f7	0.03677937
81	0xbea19dd7	-0.31565735
82	0xbed555d2	-0.41667038
83	0xbf4461af	-0.76711553
84	0xbe4e2e8d	-0.20134945
85	0xbe6598f9	-0.22421636
86	0x3fc68355	1.5508829
87	0x3ef42a61	0.47688583
88	0x3dd4aa93	0.10384097
89	0xbf811ddb	-1.0087236
90	0x3f571807	0.8402104
91	0x3d3eed98	0.046613306
92	0xbf11a679	-0.5689464
93	0xbd2f96bc	-0.04286836
94	0x3fc5941f	1.5435828
95	0xbf744a33	-0.9542572
96	0xbdda6b6d	-0.10665021
97	0xbf0e2d25	-0.55537635
98	0xbf273b56	-0.65324914
99	0x3f88d733	1.0690674
100	0xbf960ade	-1.1722066
101	0xbe835d7e	-0.25657266
102	0x3fa6d42f	1.3033503
103	0x3ecdae68	0.40172124
104	0xbec329ed	-0.38117924
105	0xbf2440d3	-0.64161414
106	0x3ef9cab0	0.4878745
107	0x3e0231cc	0.12714309
108	0xbf87fdcc	-1.0624328
109	0xbf6014bf	-0.87531656
110	0x3f55e18e	0.83547294
111	0xbe8ab6ae	-0.270925
112	0xbe535436	-0.20637593
113	0xbf6db115	-0.9284833
114	0xbf0b55b5	-0.54427654
115	0xbf14750c	-0.579911
116	0x3f16efd0	0.58959675
117	0xbe119052	-0.1421521
118	0xbfbae2aa	-1.4600422
119	0x3fdb7846	1.714608
120	0xbf9b8d4b	-1.2152494
121	0x3f092e17	0.5358595
122	0x3ec24536	0.3794343
123	0x3dccb465	0.09995345
124	0xbf8b3893	-1.087664
125	0x3f5f9880	0.8734207
126	0x3e92070f	0.2852101
127	0x3f2a08e1	0.664198
128	0x3fa405b6	1.2814243
129	0xbee1fcfa	-0.44138318
130	0xbde953d9	-0.11392946
131	0x3b06750a	0.0020516538
132	0xbf2f13a8	-0.6838937
133	0xbf01feeb	-0.507796
134	0xbeefbc56	-0.46823376
135	0xbe1f47e4	-0.15554768
136	0x3f04c5cb	0.5186431
137	0xbd77b3dd	-0.060474265
138	0x3f5bf5cb	0.85921925
139	0x40083078	2.1279583
140	0xbc836fc1	-0.0160445
141	0x3f41cf7e	0.7570723
142	0x3f0760d3	0.5288212
143	0xbf01a41d	-0.5064104
144	0x3f505a3b	0.8138768
145	0xbe6dc5f5	-0.23220046
146	0xbe57dd81	-0.21080591
147	0xbf94dc30	-1.1629696
148	0xbd53faf1	-0.05175299
149	0xbf49e4c9	-0.78864723
150	0x3ede6a91	0.4344068
151	0x3ee2ceb7	0.44298336
152	0xbe6730a8	-0.22577155
153	0xbf16e349	-0.5894056
154	0x4007000d	2.109378
155	0xbf39a3b7	-0.72515434
156	0x3eaa9b58	0.33321643
157	0xbea6469b	-0.32475743
158	0x3f924749	1.1428005
159	0xbefe2718	-0.496392
160	0xbf91ce40	-1.1391068
161	0xbf3f15b7	-0.7464251
162	0x3eacb2b5	0.33730093
163	0x3e2128f5	0.1573828
164	0xbff684a2	-1.9259226
165	0xbef94725	-0.4868709
166	0x3fa672dd	1.3003803
167	0x3e586d32	0.21135405
168	0xbf4990c8	-0.78736544
169	0xbef7cfd4	-0.48400748
170	0x3effc7dd	0.4995717
171	0x3e0ff6df	0.14059018
172	0x3ebf72e0	0.3739233
173	0xbef684c6	-0.48148173
174	0x3fc45d24	1.5340924
175	0xbea63a9d	-0.32466593
176	0xbf0a19e5	-0.5394576
177	0xbf9d9e76	-1.2313983
178	0xbea0c125	-0.31397358
179	0xbc884cc1	-0.016638162
180	0xbf1183e5	-0.5684188
181	0xbf1c7af1	-0.61125094
182	0xbf38e7ff	-0.72229
183	0x3eaaca95	0.33357683
184	0xbf223d7d	-0.63375074
185	0x3f0e3424	0.5554831
186	0x3ee18bd8	0.44052005
187	0xbf3daa76	-0.7408823
188	0xbe6448b7	-0.22293364
189	0x3f8cb65d	1.0993153
190	0xbe808587	-0.25101873
191	0xbe8b2a20	-0.27180576
192	0x3eb92ebc	0.36168468
193	0xbf046f11	-0.51731974
194	0xbfb6e7f6	-1.4289539
195	0x3de21c67	0.110405736
196	0x3f3b83f1	0.732482
197	0xbf26b22f	-0.65115637
198	0xbeee036b	-0.46486983
199	0xbe75d20b	-0.24005906
200	0x3f3aef87	0.7302174
201	0xbd8e0de7	-0.069362454
202	0xbfa4921b	-1.2857088
203	0xbd3fb7ae	-0.04680603
204	0xbddb2dfc	-0.1070213
205	0xbf8f3967	-1.1189393
206	0xbf6a5d69	-0.9154878
207	0x3df26dc7	0.118373446
208	0x3f3faf89	0.7487722
209	0x3fbd121a	1.4771149
210	0x3f1c63d2	0.61089814
211	0x3ec013a3	0.37514982
212	0xbf778c92	-0.9669887
213	0x3e8de280	0.27711868
214	0x3f562d48	0.83662844
215	0xbe3b7f6a	-0.18310323
216	0xbf53d40c	-0.8274543
217	0x3fa06938	1.253211
218	0xbf91d1e0	-1.1392174
219	0xbf9b655c	-1.2140307
220	0xbe8ee5be	-0.27909654
221	0x3f954020	1.1660194
222	0xbf73c3e5	-0.95220786
223	0x3fa6488e	1.2990892
224	0xbfbc065f	-1.4689444
225	0xbbd6d0c5	-0.006555649
226	0x3fb1dfc4	1.3896413
227	0xbfb9a1fe	-1.4502561
228	0x3fb87e18	1.4413481
229	0x3e6f6d01	0.23381425
230	0xbf88c5ab	-1.0685323
231	0xbf3de142	-0.7417184
232	0x3f41e98e	0.75747
233	0xbf34e81b	-0.70666665
234	0x3e49c6d3	0.19704752
235	0xbe845f3f	-0.25853917
236	0xbedba4fa	-0.42899305
237	0xbf0c8621	-0.54892164
238	0xbf0c9fe5	-0.5493148
239	0x3eb225e6	0.3479454
240	0xbe7b63cd	-0.2454979
241	0x3e080a99	0.13285293
242	0x3fa47977	1.2849568
243	0x3f8bb874	1.0915666
244	0xbf9b0434	-1.2110658
245	0x3f295e6d	0.6615971
246	0x4016ec9d	2.3581917
247	0xbf9aba77	-1.2088155
248	0xbf18329e	-0.59452236
249	0xbdd023fc	-0.101631135
250	0x3da13b96	0.07872693
251	0xbf05597f	-0.52089685
252	0x3ea20e72	0.31651646
253	0xbe52d23e	-0.20588014
254	0xbe352cd7	-0.17692886
255	0xbf6c2b4d	-0.9225357

lstm.bias_ih_l0 f4 [256]
0	0xbf248d8d	-0.6427849
1	0xbdd8e497	-0.10590475
2	0x3f360323	0.71098536
3	0xbf0cb2d9	-0.549604
4	0xbe4c7505	-0.19966514
5	0xbf3dca9d	-0.7413729
6	0xbf156ddd	-0.58370763
7	0x3dec77c8	0.11546284
8	0xbe391176	-0.18073067
9	0xbded7eac	-0.11596426
10	0x3f652797	0.89513534
11	0x3f0cca42	0.5499612
12	0xbe48a661	-0.19594719
13	0xbd88289f	-0.06648373
14	0x3eb7bbac	0.3588537
15	0xbf6d82dd	-0.92777807
16	0xbe552dc1	-0.20818235
17	0xbec65c0c	-0.387421
18	0xbe869705	-0.26287094
19	0xbf5e2b90	-0.8678522
20	0x3c9a0e28	0.018805578
21	0xbf1c740f	-0.6111459
22	0xbf8371cc	-1.0269103
23	0xbeb354de	-0.35025686
24	0x3e845579	0.2584646
25	0xbe9052f1	-0.2818828
26	0x3df0ae9c	0.11752054
27	0x3e261ce7	0.16221963
28	0xbf17a6b1	-0.59238726
29	0xbe846221	-0.25856116
30	0x3edc3239	0.43007067
31	0x3f639927	0.88905567
32	0xbe83982f	-0.25702044
33	0xbf29c440	-0.6631508
34	0x3edc961d	0.43083277
35	0x3f3ebaac	0.7450359
36	0x3ed2f47d	0.41202155
37	0xbf7a7deb	-0.97848386
38	0x3f83beb7	1.0292577
39	0x3df2fda8	0.11864787
40	0xbefb8d53	-0.4913126
41	0x3cf6c9bf	0.030125497
42	0xbee10183	-0.43946466
43	0xbed5ddbb	-0.4177073
44	0xbb24e3a8	-0.0025160108
45	0x3e385d46	0.18004331
46	0xbf293d8b	-0.6610953
47	0xbef712b1	-0.48256448
48	0xbe751381	-0.23933221
49	0xbf28d6de	-0.6595286
50	0x3f278294	0.6543362
51	0x3ec120ff	0.37720487
52	0x3e9ea3ce	0.30984348
53	0xbea937bb	-0.3305033
54	0x3f7ce8c8	0.98792696
55	0x3ee62143	0.44947252
56	0x3dd38bbf	0.10329389
57	0xbdaef5e1	-0.085429914
58	0x3db3bf8c	0.08776769
59	0xbdcc11e0	-0.09964347
60	0x3ead872e	0.33892196
61	0xbf034f07	-0.5129246
62	0xbe1a34b0	-0.15059161
63	0xbe123dab	-0.14281337
64	0x3e13765c	0.1440062
65	0x3e2a305d	0.16620012
66	0x3c5b62c8	0.0133902505
67	0x3ea0b104	0.31385052
68	0xbec574df	-0.38565728
69	0x3f05829f	0.52152437
70	0x3d6b39af	0.05742806
71	0xbccf776c	-0.0253255
72	0xbe272228	-0.16321623
73	0x3d7c4707	0.061591174
74	0xbcab1d9a	-0.020888139
75	0xbeea3356	-0.4574229
76	0xbdcc3542	-0.099710956
77	0xbd8b5c5b	-0.06804725
78	0xbe357d13	-0.17723493
79	0xbae681e7	-0.0017586321
80	0xbd8f2127	-0.06988745
81	0xbe6ba5eb	-0.23012511
82	0xbbab2787	-0.005223218
83	0x3ea35420	0.3190012
84	0x3d976a15	0.073932804
85	0x3f073c17	0.52826065
86	0x3d3f857c	0.04675816
87	0x3e6e62ce	0.23279878
88	0x38b40764	8.5844455e-05
89	0xbe08bb44	-0.13352686
90	0x3c2b902d	0.010471386
91	0x3e98e9d4	0.29865897
92	0x3e54beeb	0.20775954
93	0x3d76b19c	0.060227975
94	0xbef8dd5b	-0.4860638
95	0x3edde539	0.43338946
96	0x3f103859	0.5633598
97	0x3f24f33a	0.64433634
98	0x3c95376a	0.0182149
99	0xbd8b7325	-0.068090715
100	0xbdc2975e	-0.09501527
101	0x3db466fa	0.08808704
102	0xbe43f7b9	-0.19137467
103	0xbe1fe487	-0.1561452
104	0xbec12f66	-0.37731475
105	0xbd45280d	-0.0481339
106	0x3ea5e08a	0.32397872
107	0x3eb740c4	0.357916
108	0xbddbfbd3	-0.10741391
109	0xbe80bedc	-0.25145614
110	0x3eb7daef	0.3590922
111	0xbdae2725	-0.0850356
112	0x3ee4037d	0.4453391
113	0x3ed35335	0.4127442
114	0xbde33e24	-0.11095837
115	0x3e5e6e29	0.2172171
116	0x3dcf7838	0.10130352
117	0xbe649c77	-0.22325312
118	0xbed6f166	-0.41981047
119	0x3e9222fc	0.28542316
120	0x3e9e02bc	0.3086146
121	0x3e2d4b13	0.1692317
122	0x3efc0564	0.49222863
123	0xbead2c16	-0.33822697
124	0xbe7ebf94	-0.24877769
125	0x3e1852dd	0.1487536
126	0x3e6aa8b2	0.22915915
127	0xbd81d0a5	-0.06338624
128	0xbdc8d786	-0.09806733
129	0xbe3e2902	-0.1857033
130	0x3ee82911	0.4534383
131	0xbe857fa6	-0.2607395
132	0xbe9770fc	-0.29578388
133	0xbdd4de21	-0.1039393
134	0xbe348d1e	-0.17631957
135	0x3e8dcdd7	0.27696106
136	0xbe323f21	-0.17406894
137	0xbca19bdc	-0.01972764
138	0x3d1366ec	0.035986826
139	0x3f05e897	0.5230803
140	0xbd9b8882	-0.07594396
141	0x3d34c871	0.04413647
142	0x3f1a0f70	0.60179806
143	0x3c6d687a	0.014490241
144	0x3a8605c5	0.0010225108
145	0xbe436e51	-0.19085051
146	0xbe4d7063	-0.20062403
147	0x3de3554d	0.11100254
148	0x3eb2dfe7	0.3493645
149	0x3eacc5ed	0.33744755
150	0x3e93b925	0.28852192
151	0x3e882c20	0.26596165
152	0x3eb4823c	0.3525561
153	0xbeeb0d65	-0.45908657
154	0x3eb644ea	0.35599452
155	0x3f0f4ec4	0.5597956
156	0x3e87bdf9	0.26512125
157	0x3dab7ca9	0.083733864
158	0x3f1f283b	0.6217076
159	0xbf6a3c2c	-0.91498065
160	0x3f0d09b9	0.5509296
161	0xbe959293	-0.2921339
162	0xbdc75ab6	-0.097340986
163	0x3e95d854	0.29266608
164	0xbece502d	-0.40295544
165	0x3e3c024f	0.18360256
166	0x3d7d3adc	0.06182371
167	0xbd46bd07	-0.048520114
168	0xbe20ab64	-0.1569038
169	0xbd03fa23	-0.03222097
170	0x3de571dc	0.112033576
171	0xbd5feae1	-0.054667357
172	0x3e5fb9f9	0.21848287
173	0x3d4a0ed1	0.049330536
174	0x3d56e4ba	0.052464224
175	0xbec6fb2c	-0.38863504
176	0x3d2ab7e7	0.04167929
177	0x3e0d10b3	0.13775901
178	0xbe01c4d2	-0.12672737
179	0xbe660853	-0.22464113
180	0x3ee51abf	0.44746968
181	0x3e034657	0.12819801
182	0xbf560ab4	-0.8361008
183	0x3e59ee67	0.2128235
184	0x3e99cd76	0.30039567
185	0xbe53cbab	-0.20683162
186	0x3f0257e6	0.5091537
187	0x3d9961fa	0.07489391
188	0xbef7d878	-0.4840734
189	0xbe0baa22	-0.1363912
190	0xbc861b88	-0.01637055
191	0x3e03d786	0.12875184
192	0x3ea604b0	0.3242545
193	0x3e923ca5	0.28561893
194	0x3ee6eec4	0.4510404
195	0x3e5b8121	0.21435978
196	0xbf8de81b	-1.1086458
197	0xbcfa7019	-0.03057103
198	0x3de4bfed	0.111694194
199	0x3e2c674f	0.16836284
200	0x3e9fc569	0.312053
201	0xbdc89bd2	-0.09795345
202	0x3f2d4191	0.6767817
203	0x3e15c460	0.14625692
204	0xbf05f0b1	-0.5232039
205	0x3e8347b9	0.25640658
206	0x3f3df85e	0.74207103
207	0x3b8ec9b1	0.0043575396
208	0xbed73feb	-0.42040953
209	0xbe63e239	-0.22254266
210	0xbef399f5	-0.47578397
211	0xbe5fb953	-0.2184804
212	0x3e8b9dd0	0.2726884
213	0xbc76f679	-0.015073412
214	0xbdad9571	-0.08475769
215	0x3d857f06	0.065183684
216	0x3d44deed	0.04806416
217	0x3b5740ea	0.0032845088
218	0x3f5c0b9f	0.8595523
219	0x3eefb063	0.4681426
220	0x3de679d5	0.11253706
221	0xbe6f55eb	-0.23372619
222	0x3f443983	0.76650256
223	0x3ea36c8a	0.31918746
224	0x3ebf0331	0.37307122
225	0x3e22acfa	0.15886298
226	0x3e01c7f0	0.12673926
227	0x3eb5658a	0.3542903
228	0x3fa519a0	1.2898445
229	0xbd796115	-0.0608836
230	0x3ed01424	0.40640366
231	0xbd5cf1f4	-0.053941682
232	0xbe9f751c	-0.31144035
233	0xbe08162c	-0.13289708
234	0xbdc6e317	-0.09711283
235	0xbd455b62	-0.048182853
236	0x3ec34a6c	0.38142717
237	0x3dd865bc	0.10566279
238	0x3e443054	0.1915906
239	0xbe0f03a3	-0.13966231
240	0x3f3678c6	0.71278036
241	0xbe04bcd7	-0.12962662
242	0x3e787953	0.24265032
243	0x3e5620f6	0.20911011
244	0x3f342d1f	0.7038135
245	0xbf1f3e96	-0.62204874
246	0x3f8a23db	1.0792192
247	0x3cb3229b	0.021867087
248	0x3e83211c	0.25611198
249	0x3c566d5d	0.013087598
250	0xbe55d21c	-0.20880932
251	0xbe851351	-0.259913
252	0x3e25f327	0.16206037
253	0xbfb7444d	-1.4317719
254	0xbebf3146	-0.3734228
255	0xbe18e53c	-0.14931196

lstm.bias_hh_l0 f4 [256]
0	0xbf39d6a6	-0.7259315
1	0xbe141010	-0.14459252
2	0x3f17bc67	0.59271854
3	0xbef7734e	-0.48330158
4	0xbe09054d	-0.13380928
5	0xbf422bf1	-0.758483
6	0xbf11d58d	-0.5696648
7	0x3e64ae98	0.22332227
8	0xbe33b0ee	-0.17547962
9	0xbe140af7	-0.14457308
10	0x3f4f0b5b	0.808767
11	0x3f18380e	0.5946053
12	0xbe809854	-0.25116217
13	0xbd0d8e7c	-0.03455971
14	0x3e92762c	0.28605783
15	0xbf5146c5	-0.8174861
16	0xbebd5c2d	-0.36984387
17	0xbebc174a	-0.36736518
18	0xbe3e93e2	-0.186111
19	0xbf4d947c	-0.80304694
20	0xbd9f9253	-0.07791581
21	0xbf014b69	-0.5050569
22	0xbf8fefbd	-1.1245037
23	0xbea20faa	-0.31652576
24	0x3e675292	0.22590092
25	0xbe89d6c7	-0.26921675
26	0x3ea31057	0.31848404
27	0x3e2fb021	0.17157032
28	0xbf29dc4d	-0.6635178
29	0xbe18d5cf	-0.14925312
30	0x3f09ab3f	0.53776926
31	0x3f4f664f	0.81015486
32	0xbcebc68d	-0.0287812
33	0xbf26d03a	-0.6516148
34	0x3e916871	0.28399995
35	0x3f499820	0.7874775
36	0x3eb160f9	0.34644297
37	0xbf830318	-1.0235319
38	0x3f614e89	0.8801046
39	0x3e509863	0.20370631
40	0xbf21a550	-0.6314287
41	0xbdaf6562	-0.08564259
42	0xbee332ed	-0.4437479
43	0xbee97399	-0.45596007
44	0x3d8f05b2	0.06983508
45	0x3e8b8f6e	0.27257866
46	0xbf453db5	-0.7704728
47	0xbeb4beb7	-0.35301754
48	0xbe90186b	-0.2814363
49	0xbf33c5a0	-0.70223427
50	0x3f2f134c	0.6838882
51	0x3ec1e3fb	0.37869248
52	0x3ec0fbde	0.3769216
53	0xbebe277e	-0.37139505
54	0x3f7e29dc	0.9928262
55	0x3ef79291	0.4835401
56	0xbd1d5019	-0.038406465
57	0xbe8df322	-0.27724558
58	0x3df81b4a	0.1211458
59	0xbe90889f	-0.28229234
60	0x3e8e83be	0.27834886
61	0xbf3ce0ac	-0.7378032
62	0xbdf5d816	-0.12004106
63	0xbd867df1	-0.0656699
64	0x3e83702e	0.25671524
65	0x3dd2a4b3	0.1028532
66	0xbd0939f5	-0.033502538
67	0x3e5ba5a1	0.21449901
68	0xbf196a07	-0.5992741
69	0x3f057893	0.52137107
70	0x3e2cc1e2	0.16870835
71	0x3df211e2	0.11819817
72	0xbd8f1f31	-0.06988371
73	0x3deb5ded	0.11492524
74	0x3e4d8c79	0.20073117
75	0xbed78aa4	-0.42097962
76	0xbd18eab1	-0.037333194
77	0xbd9a7bab	-0.07543119
78	0xbe5ecd4b	-0.21758
79	0x3d5bd210	0.053667128
80	0xbe03d79c	-0.12875217
81	0xbd5b9c7a	-0.053616025
82	0x3ca768a7	0.020435644
83	0x3eb43e2e	0.3520369
84	0x3d2729c3	0.04081131
85	0x3f02aa84	0.51041436
86	0x3e0994a5	0.1343561
87	0x3e04fdcc	0.12987441
88	0x3dc770df	0.09738325
89	0xbe8b703c	-0.27234066
90	0xbca85dbd	-0.02055251
91	0x3e9e302c	0.30896127
92	0x3e8ff098	0.28113246
93	0x3cf5c842	0.030002717
94	0xbf10a7ff	-0.5650634
95	0x3eb63f6b	0.3559526
96	0x3f389dd3	0.7211582
97	0x3f0886a7	0.53330463
98	0x3e638cff	0.22221754
99	0xbe3f2de7	-0.18669854
100	0xbdfd8619	-0.12379093
101	0x3d93e010	0.07220471
102	0xbe117a40	-0.14206791
103	0xbe4de475	-0.2010668
104	0xbeae4402	-0.3403626
105	0x3e1c8bb2	0.15287665
106	0x3ea99154	0.3311869
107	0x3ecd65ec	0.40116823
108	0xbdb76c8b	-0.0895625
109	0xbe07ddc6	-0.13268194
110	0x3e4c7059	0.19964732
111	0xbe8afe2f	-0.27147052
112	0x3ef0d2b7	0.47035763
113	0x3ec39a7f	0.3820381
114	0xbddd1e60	-0.10796809
115	0x3df9af51	0.12191642
116	0x3e06d3fd	0.13166805
117	0xbd9900c3	-0.074708484
118	0xbe8e1bb2	-0.27755505
119	0x3e96a336	0.29421395
120	0x3e8b0a22	0.27156168
121	0x3e23b119	0.15985526
122	0x3ec75431	0.3893142
123	0xbea149bb	-0.31501564
124	0xbe9a7c32	-0.30172879
125	0x3ebee1f5	0.37281767
126	0x3de2bdb8	0.11071342
127	0xbe3ee42a	-0.18641725
128	0xbdad1e70	-0.08453071
129	0xbe1d278e	-0.1534712
130	0x3ede79dd	0.4345235
131	0xbe43a839	-0.1910714
132	0xbe8d1d03	-0.27561197
133	0xbe14a73c	-0.1451692
134	0xbdd43324	-0.10361317
135	0x3eeacc3a	0.45858938
136	0xbe538fd3	-0.20660333
137	0xbe11f922	-0.14255193
138	0x3e3a7f12	0.18212536
139	0x3ec4179d	0.38299266
140	0xbd709d45	-0.058743734
141	0x3d91eaac	0.07124838
142	0x3f044cf1	0.51679903
143	0xbdae2def	-0.08504855
144	0xbd7b9cf6	-0.061428986
145	0xbe2daa1b	-0.16959421
146	0xbe790b17	-0.24320637
147	0x3e90937d	0.28237525
148	0x3e723ab8	0.23655212
149	0x3e707b0f	0.23484443
150	0x3e2d089b	0.16897814
151	0x3e11aee6	0.14226875
152	0x3def941b	0.11698171
153	0xbe8d15ad	-0.275556
154	0x3e4d7d89	0.20067419
155	0x3f0d154a	0.5511061
156	0x3e60248e	0.21888945
157	0xbcf88ef9	-0.030341612
158	0x3ef6b43b	0.4818438
159	0xbf6427ea	-0.89123404
160	0x3f11f0f3	0.57008284
161	0xbe455474	-0.19270498
162	0x3d8df4ae	0.069314346
163	0x3ebc7c8a	0.36813766
164	0xbea1cf7f	-0.3160362
165	0x3e13d998	0.14438474
166	0x3e866931	0.2625213
167	0xbb8fec71	-0.0043921997
168	0xbc3462cf	-0.011009886
169	0xbd03acd0	-0.03214723
170	0xbd80219a	-0.06256409
171	0x3df6c2ff	0.12048911
172	0x3c7667ef	0.015039428
173	0xbd14d37f	-0.03633451
174	0xbd8cc4dc	-0.068734854
175	0xbe889f64	-0.26684105
176	0xbe0d1c45	-0.13780315
177	0x3e2d995b	0.16953032
178	0xbe4d38cc	-0.20041198
179	0xbe16b788	-0.14718449
180	0x3ee72a9b	0.45149693
181	0x3e10e16e	0.14148495
182	0xbf50e766	-0.81603086
183	0x3e6e6719	0.23281516
184	0x3da912a1	0.08255506
185	0xbdc776b7	-0.0973944
186	0x3f006d2c	0.50166583
187	0xbd6b7fad	-0.057494808
188	0xbefa198e	-0.48847622
189	0xbe5efc32	-0.21775892
190	0xbd7ea2a9	-0.062166844
191	0x3e392646	0.18081006
192	0x3ecfb1fa	0.40565473
193	0x3e7c7785	0.24654968
194	0x3e9c2724	0.30498612
195	0x3e8d668b	0.27617297
196	0xbf9a063b	-1.2033151
197	0xbc946134	-0.018112756
198	0x3d9eb003	0.07748415
199	0x3c852e0c	0.016257308
200	0x3e7a1cb4	0.24425012
201	0xbe347493	-0.17622595
202	0x3f507d15	0.8144086
203	0x3ea65cd6	0.32492703
204	0xbea21535	-0.31656805
205	0x3e7e69a7	0.2484499
206	0x3f182c44	0.59442544
207	0xbdcc8857	-0.09986942
208	0xbf004f34	-0.50120854
209	0xbe3992d1	-0.18122412
210	0xbeca7ed1	-0.39549878
211	0xbe6b801f	-0.22998093
212	0x3e74d8ae	0.23910782
213	0xbae23935	-0.0017259481
214	0xbe239f9e	-0.15978858
215	0x3e1c8e10	0.15288568
216	0x3d0598cb	0.032616418
217	0x3e3da8e8	0.18521464
218	0x3f51fc73	0.8202583
219	0x3f133cd3	0.57514685
220	0x3d12fb28	0.035884053
221	0xbe561eab	-0.20910136
222	0x3f5e3a79	0.8680797
223	0x3eec43c8	0.46145463
224	0x3eac7439	0.3368242
225	0x3d750607	0.0598202
226	0x3e0457e2	0.1292415
227	0x3e362926	0.17789134
228	0x3f8b6e0e	1.0892961
229	0x3cecc006	0.028900158
230	0x3efadba0	0.48995686
231	0xbdca7f34	-0.09887543
232	0xbe9fa60e	-0.31181377
233	0x3d62ebb6	0.055400573
234	0xbe340891	-0.17581393
235	0xbd26c606	-0.040716194
236	0x3e653707	0.22384273
237	0x3e041d4e	0.12901804
238	0xbc8671d9	-0.016411709
239	0xbe24b5c0	-0.16084957
240	0x3f68a85c	0.90881896
241	0xbd9739aa	-0.073840454
242	0x3e6f6e2b	0.2338187
243	0x3e50b71c	0.2038235
244	0x3f1fb0ef	0.62379354
245	0xbf510662	-0.81650364
246	0x3f6bca96	0.92105997
247	0x3d858fb1	0.065215476
248	0x3e037c0f	0.12840293
249	0x3de8bc85	0.11364082
250	0xbdb86368	-0.09003335
251	0xbe91c83c	-0.2847308
252	0x3ce05e37	0.027388675
253	0xbfc7cb2f	-1.5608882
254	0xbe7949a8	-0.24344504
255	0xbe13d542	-0.1443682

lstm.weight_ih_l1 f4 [256, 64]
0	0x3c889645	0.016673217
1	0xbf476ad2	-0.7789737
2	0xbf8a2cf7	-1.0794972
3	0xbdc1bd94	-0.09459987
4	0xbe0ced3c	-0.13762373
5	0x3e227f78	0.15868938
6	0xbdf7fae7	-0.12108403
7	0xbec6f901	-0.3886185
8	0x3e7cc0f4	0.24682981
9	0x3ef1f5de	0.47257894
10	0xbf09fe11	-0.539033
11	0x3e8f26ae	0.27959198
12	0x3e14bc5f	0.14524983
13	0xbf1414fe	-0.5784453
14	0xbe8b87f9	-0.27252176
15	0xbe02412f	-0.12720178
16	0x3e328b0a	0.17435852
17	0xbe3fd15f	-0.18732212
18	0x3e87b8dc	0.26508224
19	0xbd830755	-0.06397883
20	0xbe037c85	-0.12840469
21	0xbebf3dc9	-0.37351826
22	0x3e5c8aac	0.21537274
23	0x3e874aba	0.264242
24	0xbea16655	-0.31523386
25	0x3e16670c	0.14687747
26	0xbe37c284	-0.17945296
27	0xbf15e137	-0.58546776
28	0x3eb2c1e8	0.34913564
29	0x3e0a81e5	0.13526113
30	0xbe083933	-0.1330307
31	0x3e2397d1	0.15975882
32	0xbef1d16d	-0.47230092
33	0xbe190147	-0.14941894
34	0x3ca17a82	0.019711737
35	0xbe07c5b4	-0.13259012
36	0x3f5bea53	0.85904425
37	0x3e3bc068	0.18335116
38	0xbe146bc4	-0.14494234
39	0xbec5b388	-0.38613534
40	0x3ccca5ac	0.024981342
41	0xbe6b5ee6	-0.2298542
42	0x3e8f21ab	0.27955374
43	0xbed34d77	-0.41270038
44	0xbb97e17f	-0.0046350355
45	0x3db001a4	0.08594063
46	0xbd809550	-0.06278479
47	0x3df3086f	0.11866843
48	0xbea90566	-0.3301193
49	0xbe35bfde	-0.17748973
50	0x3f156c92	0.5836879
51	0x3e7ddea3	0.2479196
52	0xbe901dd1	-0.28147748
53	0x3e860537	0.26175854
54	0x3ead5784	0.33855832
55	0xbdfe2fcb	-0.124114595
56	0xbe5de6e4	-0.21670109
57	0xbd38c463	-0.045109164
58	0xbdfbdf88	-0.122984946
59	0x3e3b29e4	0.18277699
60	0x3ecf4706	0.40483874
61	0x3d13d1e3	0.036088835
62	0xbe9660a0	-0.29370594
63	0xbcbf2b5f	-0.02333611
64	0x3b8c6c42	0.0042853663
65	0x3eb95427	0.36197016
66	0xbf863516	-1.048495
67	0xbd45ea17	-0.04831895
68	0x3f10c0a3	0.5654394
69	0xbe7d45a5	-0.24733599
70	0xbd49eb8d	-0.049296904
71	0xbeeb92bc	-0.46010387
72	0xbd8f1df8	-0.06988138
73	0x3bc25a04	0.005931141
74	0xbeedfd6c	-0.46482408
75	0x3e72af86	0.2369977
76	0xbe137e3f	-0.14403628
77	0x3eaafbbb	0.3339518
78	0xbe0faa4d	-0.14029808
79	0x3e54291d	0.20718808
80	0x3e05cf0c	0.13067263
81	0xbe2e3626	-0.17012843
82	0xbd99f71c	-0.075178355
83	0xbf15cefb	-0.5851895
84	0x3ef15ced	0.4714121
85	0xbb49d4b1	-0.003079694
86	0xbdc61f9b	-0.09673997
87	0xbf2add93	-0.66744345
88	0xbccb55d3	-0.024821198
89	0x3e8b014f	0.27149436
90	0x3e5da70c	0.21645755
91	0x3ef89017	0.48547432
92	0xbe13cd8f	-0.14433883
93	0x3eb17ba9	0.34664658
94	0xbf0128c4	-0.5045283
95	0x3e3890c0	0.18023968
96	0x3e6d55ba	0.23177233
97	0xbe3e01d3	-0.18555383
98	0xbe0f3ebf	-0.1398878
99	0xbf0c21b8	-0.5473895
100	0xbe4dddc3	-0.20104127
101	0x3dc604e2	0.096689
102	0xbe5619fc	-0.2090835
103	0xbe782977	-0.24234568
104	0xbea4609c	-0.32104957
105	0x3d1cd22b	0.03828637
106	0x3d78852f	0.06067389
107	0xbdc6a217	-0.09698885
108	0x3ed0072f	0.4063048
109	0x3f1dfb8b	0.6171195
110	0x3f1817e7	0.5941147
111	0xbdd34dbe	-0.103175625
112	0xbeae7e43	-0.34080705
113	0xbe9546c4	-0.29155552
114	0x3e82251b	0.25418934
115	0xbe195c05	-0.14976509
116	0xbe9e9dbb	-0.30979714
117	0x3eb0dc50	0.34543085
118	0x3f6fd878	0.9368968
119	0xbf031922	-0.51210225
120	0x3d19a317	0.03750905
121	0xbd536d1d	-0.05161773
122	0x3ec03585	0.37540832
123	0x3dffd307	0.12491422
124	0x3ebb81df	0.3662252
125	0xbeb9428f	-0.36183593
126	0xbee108c2	-0.43951994
127	0xbd82cb8a	-0.06386478
128	0xbe1c1d2e	-0.15245506
129	0xbed13a19	-0.40864637
130	0xbf859852	-1.043711
131	0xbf56aa58	-0.83853674
132	0xbf23ff9b	-0.640619
133	0x3ec9cc3e	0.39413637
134	0xbee794f4	-0.4523083
135	0xbdaab6b3	-0.08335628
136	0x3f45aeaa	0.7721964
137	0x3ec34bc1	0.38143733
138	0xbe7a5662	-0.24447015
139	0x3eec1ee4	0.46117318
140	0x3d7c0ee4	0.06153764
141	0xbc34d340	-0.011036694
142	0xbec09f3e	-0.37621492
143	0xbc3a85e3	-0.01138446
144	0x3f11ee32	0.5700408
145	0x3e4aba18	0.19797552
146	0x3e9508c1	0.2910824
147	0xbd0d8198	-0.03454742
148	0xbedd8d58	-0.432719
149	0x3edbad87	0.42905828
150	0x3ea618e3	0.32440862
151	0xbe61e0aa	-0.22058359
152	0xbe63ec4c	-0.22258109
153	0x3f1b6a71	0.6070929
154	0x3db67ed6	0.08910911
155	0xbf54df02	-0.8315278
156	0xbf88ce88	-1.0688028
157	0x3e214795	0.15749963
158	0xbf09b35d	-0.5378931
159	0x3ef08c8f	0.46982238
160	0xbdce58a0	-0.100754976
161	0xbe37427b	-0.17896454
162	0x3eb0e6e5	0.3455116
163	0xbe7f439c	-0.24928135
164	0x3e7d2753	0.24722032
165	0x3f4c5ed1	0.7983218
166	0xbe86df3c	-0.2634219
167	0xbd5ba5c0	-0.05362487
168	0x3e7040fb	0.23462288
169	0xbc73f923	-0.014890942
170	0x3e0a73c4	0.13520724
171	0xbe4b5d39	-0.1985978
172	0xbe9868bf	-0.29767415
173	0xbe807de0	-0.25096035
174	0xbbc4f862	-0.006011055
175	0x3dc36623	0.095409654
176	0xbe9dc10f	-0.30811355
177	0x3c8c7628	0.017146185
178	0x3eca1e21	0.39476112
179	0x3e90debf	0.28294942
180	0xbf189fdd	-0.5961893
181	0xbde0ef3c	-0.1098313
182	0x3f5d7e87	0.8652119
183	0xbf23b515	-0.63948184
184	0xbe342538	-0.17592323
185	0xbd17c440	-0.037052393
186	0xbed94008	-0.42431664
187	0xbe592fa3	-0.21209578
188	0x3ee7e847	0.452944
189	0x3f8f3184	1.1186986
190	0xbe8b43cc	-0.27200162
191	0xbe9d0895	-0.3067061
192	0xbe1cf927	-0.15329419
193	0xbea27200	-0.317276
194	0xbe32c262	-0.17456964
195	0xbdb324e9	-0.087472744
196	0x3dbc3d9e	0.0919144
197	0xbd692e75	-0.05692907
198	0xbed7f74b	-0.42180857
199	0xbeeb6ebc	-0.4598292
200	0x3ef2788b	0.47357592
201	0xbed76935	-0.42072454
202	0x3b88e85d	0.0041780905
203	0x3ef2ee65	0.47447506
204	0xbe41143a	-0.18855372
205	0x3e9c3f4b	0.3051704
206	0x3f8b5918	1.0886564
207	0x3fdfc35a	1.7481492
208	0x3dc03997	0.093859844
209	0xbe6ccaaa	-0.23124185
210	0xbef16573	-0.47147712
211	0x3e54339d	0.20722814
212	0xbe6d9f3e	-0.23205277
213	0xbf36c474	-0.71393514
214	0xbc7d17be	-0.015447555
215	0xbf3c1506	-0.7346958
216	0x3f1841f0	0.5947561
217	0x3e0920f4	0.13391477
218	0x3f222bc8	0.63348055
219	0x3da59a67	0.080860905
220	0x3dea2354	0.114325196
221	0xbc874fac	-0.016517483
222	0x3f12161b	0.5706498
223	0xbf3276d5	-0.69712573
224	0x3d88e031	0.06683386
225	0xbecf8eda	-0.40538675
226	0xbdaf4dfa	-0.08559795
227	0x3f1f155f	0.62141985
228	0xbf5dd8a9	-0.8665872
229	0x3f1250d9	0.57154614
230	0x3f2f5a47	0.6849713
231	0xbf03d12f	-0.51491064
232	0xbf7ba5cc	-0.9829986
233	0x3dfc38fb	0.12315556
234	0x3e1929d7	0.14957367
235	0xbe679e50	-0.22618985
236	0xbe31ab43	-0.17350487
237	0xbf1591ea	-0.5842577
238	0x3e79c2bb	0.2439069
239	0xbce3243c	-0.027727239
240	0xbf0ccf6f	-0.5500402
241	0xbe9bf772	-0.30462223
242	0xbf0921d8	-0.53567266
243	0xbe14b2c2	-0.14521316
244	0xbf21ea96	-0.63248575
245	0xbe37f1fc	-0.17963403
246	0xbf3b0950	-0.73061085
247	0x3ecaeacb	0.39632258
248	0xbd8c93e5	-0.06864146
249	0x3f14445b	0.579168
250	0xbeb485d5	-0.35258356
251	0xbd16f2cd	-0.036852647
252	0xbedabc16	-0.42721623
253	0x3e5170da	0.20453206
254	0xbe80d51a	-0.25162584
255	0xbdd2703b	-0.102753125

lstm.weight_hh_l1 f4 [256, 64]
0	0xbe455302	-0.19269946
1	0xbe2d7660	-0.16939688
2	0xbe45577b	-0.19271652
3	0x3c75dca5	0.015006219
4	0x3d93d53a	0.07218404
5	0x3e0aeeff	0.13567732
6	0x3dcc71c4	0.099826366
7	0xbe28b894	-0.16476661
8	0x3ccab58b	0.02474477
9	0x3c9f893f	0.019474624
10	0x3e05046a	0.12989965
11	0x3dece469	0.11567003
12	0x3e5e6d27	0.21721326
13	0xbe78203b	-0.24231045
14	0xbcdb5571	-0.02677414
15	0xbcf63eda	-0.030059267
16	0xbea0a3ac	-0.31374872
17	0x3e25d069	0.16192783
18	0xbd8e468c	-0.069470495
19	0x3c9836eb	0.018580874
20	0xbd994b57	-0.07485073
21	0x3ccc474d	0.024936343
22	0xbde9abb2	-0.114097014
23	0xbdb5b331	-0.08872069
24	0xbd012422	-0.0315286
25	0x3c56c61f	0.013108759
26	0xbdb6967c	-0.08915421
27	0xbe7ec2bf	-0.24878977
28	0xbd02202e	-0.03176897
29	0x3db039de	0.08604787
30	0x3d5b6ff7	0.053573575
31	0x3dbc4495	0.091927685
32	0x3e4e3f28	0.2014128
33	0xbe22c4c4	-0.15895373
34	0x3cbd67c3	0.023120767
35	0xbca1444d	-0.019685889
36	0x3d3128cf	0.04325181
37	0x3e31d1a6	0.17365131
38	0xbccc4767	-0.024936391
39	0xbdc8b3e0	-0.097999334
40	0x3d97cacd	0.07411728
41	0xbdec6eab	-0.11544546
42	0xbd18d826	-0.03731551
43	0x3c39083d	0.011293468
44	0xbd78167d	-0.06056832
45	0x3cced614	0.025248565
46	0xbcc9eab7	-0.024648054
47	0xbc8c3e0f	-0.017119436
48	0xbe248ec7	-0.1607009
49	0x3c81aa03	0.015828138
50	0x3e0c778f	0.13717483
51	0xbd6bb960	-0.057549834
52	0x3e73f8f2	0.23825434
53	0x3e3d99fb	0.1851577
54	0xbe24c2e5	-0.16089971
55	0xbddeb2a8	-0.1087392
56	0xbe38cced	-0.18046923
57	0xbe97c7ce	-0.29644626
58	0x3dc076e5	0.09397677
59	0x3cc75caa	0.024336178
60	0xbb961e5c	-0.004581256
61	0xbd9fe456	-0.078072235
62	0x3e83934d	0.2569832
63	0xbdfa598b	-0.1222411
64	0x3e54065e	0.20705554
65	0x3ce1c47b	0.02755951
66	0xbdcc7efc	-0.09985158
67	0x3e774912	0.24148968
68	0xbd3568c0	-0.04428935
69	0x3e86300e	0.26208538
70	0xbd24f69f	-0.04027426
71	0xbd821d09	-0.06353194
72	0xbe592d61	-0.21208717
73	0x3ca30b24	0.019902773
74	0x3dac0357	0.083990745
75	0x3d1ec550	0.03876239
76	0x3e929fb4	0.2863747
77	0x3ddc6f93	0.107634686
78	0x3e0afb8d	0.13572522
79	0x3e945d6a	0.2897752
80	0xbda80739	-0.082045026
81	0xbe54ef6e	-0.2079446
82	0xbebb6757	-0.3660228
83	0xbdc4135f	-0.09574007
84	0x3dd93bdf	0.10607123
85	0xbe1c87bd	-0.15286155
86	0x3da0972c	0.07841334
87	0xbd4e3eb9	-0.050352786
88	0x3d346f47	0.044051435
89	0xbd8e6dba	-0.069545224
90	0x3d8532a9	0.06503803
91	0xbd0742b0	-0.033022583
92	0xbe78ce40	-0.24297428
93	0xbcacd371	-0.021096917
94	0xbc1f3629	-0.009717503
95	0x3e0c81f6	0.13721451
96	0xbd2abf5d	-0.041686404
97	0xbb5005c9	-0.003174173
98	0xbd0acef1	-0.03388876
99	0x3e8234e6	0.25430983
100	0xbd6252f0	-0.055254877
101	0x3e354553	0.17702226
102	0x3d2d9cdb	0.042385917
103	0x3e42fed0	0.19042516
104	0xbced43b0	-0.02896294
105	0x3e802263	0.25026235
106	0x3e36689c	0.17813343
107	0xbd04667d	-0.032324303
108	0xbe3697e3	-0.17831378
109	0xbdd95e0d	-0.10613642
110	0xbcd82e6e	-0.026389327
111	0x3e96bb8a	0.29439956
112	0x3ef4b0a4	0.47791016
113	0x3f101828	0.5628686
114	0x3b878d2d	0.0041367025
115	0xbdc79f9c	-0.0974724
116	0x3e321430	0.17390513
117	0x3ce7d9f9	0.02830218
118	0xbdfeeb4f	-0.12447225
119	0xbcb41422	-0.021982256
120	0x3ce02b10	0.027364284
121	0x3e5c6b5c	0.2152533
122	0xbccf631a	-0.02531581
123	0xbeda6001	-0.4265137
124	0x3ee50de7	0.4473717
125	0x3d8c0d87	0.06838518
126	0xbf1e2757	-0.6177878
127	0xbdc3c91f	-0.09559845
128	0xbd6912ec	-0.05690281
129	0x3e6ebd79	0.23314466
130	0xbcc82eb9	-0.024436342
131	0x3f1540af	0.58301824
132	0x3dbfc4d7	0.09363716
133	0xbde5e1e6	-0.11224727
134	0xbea742fb	-0.3266829
135	0x3e1845ec	0.14870423
136	0xbddec4a8	-0.10877353
137	0x3dd0a351	0.101874
138	0x3ded882f	0.115982406
139	0xbe33ba6f	-0.17551588
140	0x3eacec10	0.3377385
141	0xbd98e5a7	-0.07465678
142	0xbe479af5	-0.19492705
143	0x3eb57b6a	0.3544572
144	0xbdb6d056	-0.08926456
145	0xbe3a0fd6	-0.18170103
146	0xbde2f523	-0.11081912
147	0xbddb924f	-0.107212655
148	0xbddf4b74	-0.109030634
149	0xbf5e4a4f	-0.86832136
150	0x3e810a80	0.25203323
151	0xbded4e12	-0.11587156
152	0xbcdbf1d0	-0.026848704
153	0x3f11818d	0.56838304
154	0xbd624a81	-0.055246834
155	0x3e05022a	0.12989107
156	0x3e2ed8af	0.17074846
157	0xbe00c22d	-0.12574072
158	0xbe367a48	-0.17820084
159	0xbc7b0abf	-0.015322386
160	0x3d7abf82	0.061217792
161	0x3ea1fdc3	0.31638917
162	0xbc2b2f28	-0.010448255
163	0xbe264cd0	-0.16240239
164	0x3e673122	0.22577336
165	0x3bb759f9	0.0055954424
166	0xbe523e1b	-0.20531504
167	0x3f12899e	0.5724124
168	0x3dd51a4c	0.10405406
169	0x3f1d4940	0.61439896
170	0xbe9197b4	-0.28436053
171	0x3db2db24	0.08733204
172	0xbcdd9c4d	-0.02705207
173	0x3dfe81df	0.12427115
174	0x3bcaec46	0.006192717
175	0xbe203746	-0.15646085
176	0x3e0361d1	0.12830283
177	0x3ea7b12b	0.32752356
178	0x3da47dcd	0.08031807
179	0x3db75663	0.08952024
180	0xbe770495	-0.24122842
181	0xbdb2b36b	-0.087256275
182	0xbd3d82f9	-0.046267483
183	0x3d8681ce	0.06567727
184	0xbaa113a4	-0.0012289179
185	0xbdacf5cc	-0.084453195
186	0xbd822e37	-0.06356471
187	0xbe51474e	-0.20437357
188	0x3e974b43	0.29549608
189	0xbe8bc472	-0.27298313
190	0xbf443049	-0.7663618
191	0xbdec3185	-0.115328826
192	0x3ee173a0	0.44033527
193	0xbda21459	-0.07914037
194	0x3e357d8a	0.1772367
195	0x3ecdfdb6	0.4023263
196	0xbe2e15cc	-0.17000502
197	0x3efbf3d1	0.49209455
198	0xbecbfd9b	-0.39841923
199	0x3d831df9	0.06402201
200	0xbe608395	-0.21925195
201	0xbf2d332d	-0.67656213
202	0xbef1569c	-0.4713639
203	0xbf126606	-0.57186925
204	0xbe3ba054	-0.18322879
205	0x3f037f2b	0.5136592
206	0x3f3b9f69	0.73290116
207	0x3f8a4e91	1.0805227
208	0x3ea2458d	0.31693688
209	0xbf7f755d	-0.9978846
210	0x3eacaae2	0.33724123
211	0xbe718ffc	-0.23590082
212	0x3c0f9f60	0.008766025
213	0xbf0bd1ea	-0.5461718
214	0xbf632acc	-0.8873718
215	0xbe82fa8b	-0.25581774
216	0xbb9525e5	-0.0045516365
217	0x3f89c24b	1.0762419
218	0x3da40d69	0.0801037
219	0x3f6ff574	0.93733907
220	0xbe0fa33e	-0.14027116
221	0xbe4a19bd	-0.19736381
222	0xbed0b61e	-0.40763944
223	0xbe86ffb1	-0.26366952
224	0xbf354f89	-0.70824486
225	0x3e2420de	0.16028163
226	0xbd15aa3e	-0.03653931
227	0x3cd24956	0.025669735
228	0x3ecc7977	0.3993642
229	0x3ee2b813	0.44281062
230	0x3f908d56	1.1293132
231	0x3e40088e	0.18753263
232	0xbe9d1636	-0.30681008
233	0x3f7faa1e	0.99868953
234	0xbee9338a	-0.45547134
235	0xbf08e301	-0.5347138
236	0xbfaaab8f	-1.3333606
237	0x3dc1e953	0.09468331
238	0x3ea5f309	0.32411984
239	0x3f3773cd	0.7166107
240	0x3fcddeab	1.6083578
241	0x40046ad8	2.0690212
242	0xbe77fa98	-0.24216688
243	0x3e1a9578	0.1509608
244	0x3e455d9b	0.19273989
245	0x3c987873	0.018612122
246	0x3ed3d0a4	0.41370118
247	0x3e413149	0.18866457
248	0x3e685f4d	0.22692604
249	0xbf848a15	-1.0354639
250	0x3ddc9aa9	0.107716866
251	0xc03ec11b	-2.9805362
252	0xbd3ebf0f	-0.046568926
253	0xbec6c3fd	-0.38821402
254	0xbe9e1eab	-0.30882773
255	0x3e0123cb	0.1261131
